UAV NS for Power Lines Monitoring/Assets/NN models/BigChungus.onnx (onnx, 96281 bytes, 10 tensors)

59 f4 [21]
0	0x3d79ec74	0.061016515
1	0x3d78f2db	0.06077848
2	0x3d975c84	0.07390693
3	0x3d6f25f3	0.0583858
4	0x3d6d5841	0.057945494
5	0x3d8c6b33	0.06856384
6	0x3d7d278e	0.0618053
7	0x3d7bdacf	0.06148797
8	0x3d95cb1d	0.073141314
9	0x3d5973e5	0.05308904
10	0x3d57dfcf	0.052703675
11	0x3d86c489	0.06580455
12	0x3d5b2452	0.053501435
13	0x3d599950	0.053124726
14	0x3d87995d	0.066210486
15	0x3d7d20c6	0.061798833
16	0x3d7bbac0	0.061457396
17	0x3d948be9	0.07253248
18	0x3d792630	0.060827434
19	0x3d77c822	0.060493596
20	0x3d92b0c3	0.07162621

62 f4 [25]
0	0x3e3c42c0	0.18384838
1	0x3de539eb	0.111926876
2	0x3e34c615	0.17653687
3	0x3d0ca32a	0.034335293
4	0x3d060f6a	0.032729544
5	0x3e3d50a4	0.18487793
6	0x3de644fc	0.112436265
7	0x3e35ce1e	0.17754409
8	0x3d0db3b7	0.034595218
9	0x3d070a21	0.032968644
10	0x3e3e6b6c	0.18595666
11	0x3de75cf0	0.11297023
12	0x3e36e2bf	0.17859934
13	0x3d0eceaa	0.03486506
14	0x3d080fd2	0.033218212
15	0x3e3f92de	0.18708369
16	0x3de882b9	0.11353058
17	0x3e3803e4	0.17970234
18	0x3d0ff3ef	0.035144743
19	0x3d09210a	0.033478774
20	0x3e40c75f	0.18826054
21	0x3de9b720	0.114118814
22	0x3e3931ca	0.180854
23	0x3d1123b3	0.035434436
24	0x3d0a3e82	0.03375102

action_model._discrete_distribution.branches.0.bias f4 [6]
0	0x3d028d81	0.03187323
1	0x3d59291a	0.053017713
2	0xbcaa46c4	-0.020785697
3	0x3cbea0fb	0.02327012
4	0x3d635fad	0.055511165
5	0xbde94224	-0.113895684

action_model._discrete_distribution.branches.0.weight f4 [6, 128]
0	0x3c91caa7	0.017796827
1	0xbd9494b0	-0.072549224
2	0xbdcd7ba9	-0.10033352
3	0x3d558992	0.05213315
4	0x3d81c913	0.0633718
5	0xbd252194	-0.040315226
6	0xbdbeec15	-0.09322373
7	0x3d9747e1	0.07386757
8	0x3d042b25	0.03226771
9	0x3d48bdc6	0.049009107
10	0xbdc8a0e8	-0.097963154
11	0xbd39a940	-0.045327425
12	0x3bd7c4ca	0.0065847384
13	0x3b9fcb23	0.0048765107
14	0xbb62bd8b	-0.003459784
15	0xbd865d27	-0.06560736
16	0x3b49470b	0.003071251
17	0xbdb8d5dd	-0.09025166
18	0xbd5c2c37	-0.053753104
19	0xbd9cb228	-0.07651168
20	0xbd1fc58a	-0.039006747
21	0x3d387d9b	0.04504166
22	0x3baa9fd0	0.0052070394
23	0xbd8f138a	-0.06986149
24	0xbca20572	-0.019777987
25	0x3d8cc96b	0.06874355
26	0xbdbb3d8a	-0.09142597
27	0x3c617e3c	0.013763007
28	0xbc5cd0c7	-0.013477511
29	0x3a8def00	0.0010828674
30	0x3d8d2d24	0.068933755
31	0xbd49d717	-0.04927739
32	0xbd9b34bf	-0.0757842
33	0xbe0088fc	-0.12552255
34	0x3cce964e	0.025218155
35	0xbd9b7789	-0.07591159
36	0xbd0d6821	-0.034523133
37	0xbda6c9a5	-0.081439294
38	0xbdb4cff6	-0.08828728
39	0x3dc63c87	0.096795134
40	0xbdd3a338	-0.10333866
41	0x3d2272c4	0.03966023
42	0xbccaec9c	-0.024771027
43	0x3cf96875	0.030445317
44	0xbd39f2fa	-0.045397736
45	0x3dac7653	0.08421006
46	0x3b0346e0	0.0020031258
47	0xbd33a9a0	-0.04386294
48	0x3d1ca46c	0.038242742
49	0x3d2463cb	0.040134232
50	0xbd474779	-0.048652146
51	0xbdc9ea91	-0.09859193
52	0x3d8eb5be	0.06968258
53	0xb886f04e	-6.434378e-05
54	0x3c5c13b2	0.01343243
55	0xbcc070df	-0.023491321
56	0xbdb10466	-0.08643417
57	0x3da1fa9b	0.07909127
58	0xbe29dd30	-0.16588283
59	0xbded281e	-0.11579917
60	0xbbfc564a	-0.007700716
61	0xbd392271	-0.04519886
62	0xbd10565e	-0.035238616
63	0x3d83948f	0.0642482
64	0xbdb07958	-0.086168945
65	0x3d8b7b38	0.068106115
66	0x3bd0a6dd	0.006367548
67	0x3d29c65d	0.04144894
68	0x3da1cf92	0.07900919
69	0xbc5d6ed7	-0.013515196
70	0x3d4f3e4f	0.05059653
71	0xbd799913	-0.060937
72	0xbcc1a677	-0.023638947
73	0xbd2317e5	-0.03981771
74	0xbdd649bf	-0.10463285
75	0xbcd87c55	-0.026426474
76	0xbc94dc6c	-0.018171512
77	0xbda38d10	-0.0798589
78	0xbd4e1d38	-0.050320834
79	0x3c626dc5	0.013820116
80	0xbc6ec703	-0.014573815
81	0xbe1514c7	-0.14558707
82	0xbc8a16a4	-0.016856499
83	0xbd94ae40	-0.07259798
84	0x3dc5e2ad	0.096623756
85	0xbd342e17	-0.043989267
86	0xbd954af6	-0.07289688
87	0x3dd72ccb	0.105065905
88	0xbce27ef7	-0.027648432
89	0xbd918b17	-0.071066074
90	0xbd918c15	-0.07106797
91	0x3d7c6e7f	0.061628815
92	0xbd42f501	-0.047596935
93	0x3bdc7ac3	0.0067285015
94	0xbdddbf7b	-0.108275376
95	0x3d557834	0.052116588
96	0xbdb743b4	-0.0894846
97	0xbce5c82d	-0.028049553
98	0xbd071cec	-0.032986566
99	0x3c9e7cfa	0.019346703
100	0xbdaebc84	-0.0853205
101	0xbc8eddc2	-0.017439727
102	0xbdba91ee	-0.09109865
103	0xbe0fae77	-0.14031397
104	0xbdf8d65c	-0.12150261
105	0xbd53e607	-0.051733043
106	0x3d9644f3	0.0733737
107	0xbc1ac95b	-0.009447421
108	0x3d254dd0	0.04035741
109	0xbd93728e	-0.07199584
110	0x3adf1075	0.0017018454
111	0x3d5cab78	0.053874463
112	0x3d2635c2	0.04057861
113	0x3d02bee3	0.031920325
114	0x3d0df174	0.034654096
115	0x3d9ebbd2	0.07750668
116	0x3d492813	0.049110483
117	0x3cfd0123	0.030884331
118	0xbd9b4c27	-0.07582884
119	0xbd938771	-0.07203568
120	0x3c8bb78e	0.0170553
121	0xbd050d4f	-0.032483395
122	0xbc09c6f9	-0.008409255
123	0xbdddad27	-0.10824042
124	0xbccd954e	-0.025095608
125	0xbca41ac4	-0.020032294
126	0xbd198ac1	-0.03748584
127	0x3d8d5b56	0.069021866
128	0xbcccaff5	-0.024986247
129	0xbe519a13	-0.20468931
130	0x3c9e29e2	0.01930708
131	0xbdbbf3a6	-0.091773316
132	0x3d910882	0.07081701
133	0x3d395c78	0.0452542
134	0x3e395419	0.18098487
135	0x3d3d91ae	0.04628151
136	0xbe809282	-0.25111777
137	0x3dc782d0	0.097417474
138	0x3d7e1a60	0.062036872
139	0xbd31387c	-0.04326676
140	0x3d3c703c	0.046005473
141	0xbe2a70b1	-0.16644551
142	0x3e150b74	0.1455515
143	0x3d85e2df	0.06537413
144	0xbe71d017	-0.23614536
145	0xbd6ca83a	-0.05777762
146	0xbd2f35f2	-0.042776056
147	0x3dad552f	0.08463513
148	0x3c07afd2	0.008281665
149	0xbdc8c7fd	-0.0980377
150	0x3d7dfc27	0.06200805
151	0xbe3ae14c	-0.18250006
152	0xbde3b138	-0.11117786
153	0xbe21bbc4	-0.15794283
154	0xbe0f211a	-0.13977471
155	0x3da48716	0.08033578
156	0xbe8f2c53	-0.27963504
157	0x3c8e1434	0.017343618
158	0x3ca0c580	0.019625425
159	0x3ad52970	0.001626296
160	0x3dc937c2	0.09825088
161	0xbdef4045	-0.1168218
162	0x3d062444	0.03274943
163	0xbd53ccb7	-0.051708903
164	0x3dd55744	0.10417035
165	0xbe092f08	-0.13396847
166	0x3dfe8aed	0.12428842
167	0xbde0e428	-0.10981017
168	0x3df51430	0.11966741
169	0xbd9f7ddd	-0.077876784
170	0x3b86fbf2	0.0041193897
171	0xbd890e91	-0.066922314
172	0x3c98a929	0.01863535
173	0xbd04ed4b	-0.032452863
174	0x3dacd8cc	0.08439788
175	0xbbdb5101	-0.006693006
176	0xbcd7b33c	-0.026330583
177	0x3d887397	0.06662672
178	0x3d4155ef	0.047201093
179	0xbe01aad0	-0.12662816
180	0xbc0a4e6e	-0.008441551
181	0x3df78b4f	0.12087118
182	0xbeaebaf4	-0.3412701
183	0x3d89c804	0.06727603
184	0x3df61832	0.12016334
185	0x3df1f5fc	0.11814496
186	0xbe1d7e33	-0.15380172
187	0x3d6f488e	0.058418803
188	0x3db0f7da	0.08641024
189	0x3db6440b	0.08899697
190	0x3b070f1c	0.002060837
191	0xbcb75dbd	-0.022383565
192	0x3d8cbb7a	0.06871696
193	0x3c016948	0.007898636
194	0x3d9d6c6b	0.07686695
195	0xbe877af7	-0.26461002
196	0xbda21e48	-0.07915932
197	0x3e87f700	0.26555634
198	0xbd931652	-0.07181992
199	0x3d7b2a2e	0.061319523
200	0x3de95a16	0.11394136
201	0x3d06ed71	0.032941286
202	0x3d2b3d21	0.041806344
203	0xbe11bff7	-0.14233385
204	0xbe67d47d	-0.22639652
205	0xbea9bd27	-0.33152124
206	0xbc7a26bf	-0.015268027
207	0xbe292471	-0.16517808
208	0x3e1bd823	0.15219168
209	0xbb28d403	-0.0025761134
210	0xbe04e5db	-0.12978308
211	0x3d4543cd	0.048160363
212	0xbd5e91d2	-0.054338284
213	0xbdfedb5d	-0.12444184
214	0xbdb54a1e	-0.08852027
215	0xbe37dff1	-0.1795652
216	0xbda80f7a	-0.08206077
217	0x3d844a99	0.06459541
218	0xbe922492	-0.28543526
219	0x3d0af24f	0.03392249
220	0x3d8ea462	0.06964947
221	0x3d96cacc	0.07362899
222	0x3e06e8c6	0.13174734
223	0x3d9b63fd	0.075874306
224	0xbe3cc78a	-0.18435493
225	0x3cc3bba1	0.02389318
226	0x3d2da31c	0.04239188
227	0x3ca37a44	0.019955762
228	0xbe22824e	-0.1587002
229	0x3daa4a72	0.083149806
230	0xbde2454a	-0.11048372
231	0x3e31d615	0.17366822
232	0xbcdeaea4	-0.027182885
233	0x3e071e28	0.13195097
234	0x3cc502d9	0.02404921
235	0xbdc0c44a	-0.09412439
236	0x3e04c1c4	0.1296454
237	0xbc448d13	-0.011996525
238	0x3d1160ea	0.035492815
239	0xbc9687a4	-0.018375225
240	0xbe972fbb	-0.29528603
241	0xbcb0ade4	-0.021567293
242	0xbdcd9bbd	-0.1003947
243	0xbe36213b	-0.17786114
244	0x3c81cae0	0.015843809
245	0xbea89e27	-0.3293316
246	0xbe420ad3	-0.18949442
247	0xbd1b80e2	-0.03796471
248	0x3d4e5002	0.05036927
249	0x3d35b540	0.044362307
250	0x3da4469d	0.08021281
251	0xbdbbbcaa	-0.09166844
252	0x3d513dfd	0.051084507
253	0xbe086fea	-0.13323942
254	0xbce24ace	-0.02762356
255	0x3d9eae12	0.07748045

network_body._body_endoder.seq_layers.0.bias f4 [128]
0	0x3defc699	0.11707801
1	0xbdf85a99	-0.12126655
2	0xbd9d9e9c	-0.07696268
3	0x3e29f6bf	0.16598032
4	0x3dda339f	0.10654377
5	0xbd5e44d2	-0.05426485
6	0xbd5c92c3	-0.0538509
7	0xbe38ba8e	-0.18039915
8	0x3c5fc34b	0.013657401
9	0x3dc09009	0.094024725
10	0x3dfba24a	0.122868136
11	0xbc80ee9d	-0.01573878
12	0xbe13675f	-0.14394902
13	0x3d618b1f	0.055064317
14	0xbe87faae	-0.2655844
15	0x3af28e50	0.0018505547
16	0xbd258dec	-0.04041855
17	0x3e0abdc6	0.13548955
18	0x3d83c6a8	0.06434375
19	0x3e0c957f	0.13728903
20	0xbd17178b	-0.036887687
21	0x3dec0c20	0.1152575
22	0x3da6282c	0.08113131
23	0x3d2386ce	0.03992348
24	0x3d24d7f5	0.040245015
25	0x3e2ef54b	0.1708576
26	0xbda2b13c	-0.07943961
27	0xbc608a01	-0.013704778
28	0x3da12c96	0.07869832
29	0xbda17862	-0.07884289
30	0x3d234fa0	0.03987086
31	0x3cf5504f	0.02994552
32	0x3ddf8030	0.10913122
33	0x3e06c4e8	0.13161051
34	0x3d21297c	0.039346203
35	0xbdecdff4	-0.11566153
36	0xbdd631f8	-0.104587495
37	0x3de435cc	0.111430734
38	0x3e07df24	0.13268715
39	0x3d33ead7	0.043925133
40	0xbd7e4a14	-0.062082365
41	0xbd003d17	-0.03130826
42	0xbe1da1f5	-0.15393813
43	0x3e4b4bf1	0.19853188
44	0xbdcf790f	-0.10130512
45	0x3dd29270	0.10281837
46	0x3db14ced	0.086572506
47	0xbbfefa8b	-0.007781332
48	0x3d8ccf27	0.06875449
49	0x3d13b3d0	0.036060154
50	0x3d9cf396	0.07663648
51	0x3d8490ba	0.06472917
52	0xbe227790	-0.15865922
53	0x3e65f415	0.22456391
54	0x3dbec9f3	0.093158625
55	0xbe522647	-0.20522414
56	0x3d5ebb48	0.054377824
57	0xbcafe575	-0.021471718
58	0x3d402aab	0.04691569
59	0x3e12fa52	0.14353302
60	0x3d2d1a57	0.042261448
61	0xbd700813	-0.05860145
62	0xbe38de6e	-0.180536
63	0xbe02d925	-0.12778147
64	0xbc87d544	-0.016581185
65	0x3d9ca7c9	0.0764919
66	0xbd97f2d7	-0.07419365
67	0x3d2e21a8	0.042512566
68	0x3d3cb1df	0.04606807
69	0x3dfd5838	0.12370342
70	0x3cb9f042	0.022697572
71	0xbc582bdb	-0.01319405
72	0x3c7cfa72	0.01544057
73	0x3d904506	0.07044415
74	0x3dd782b3	0.10522976
75	0x3d7cd731	0.06172866
76	0x3ce3fcce	0.027830508
77	0x3d21806d	0.039429117
78	0xbca22ad2	-0.019795809
79	0x3d9204ab	0.071297966
80	0xbba17103	-0.004926802
81	0xbccafa70	-0.024777621
82	0x3d9d3815	0.076767124
83	0xbe3608c2	-0.17776778
84	0xbccfcdbe	-0.02536666
85	0x3cc91f60	0.024551094
86	0x3c86794f	0.016415266
87	0xbd9f05d0	-0.077647805
88	0xbda4d168	-0.080477536
89	0x3d9d8f98	0.07693404
90	0xbc69d8eb	-0.014272909
91	0x3d975b6c	0.07390484
92	0x3e07adda	0.13249913
93	0x3dba7dcf	0.09106027
94	0x3df34536	0.11878435
95	0x3dbdcfa1	0.09268118
96	0xbe566b11	-0.2093928
97	0x3ce34e12	0.027747188
98	0xbc3c1862	-0.011480423
99	0xbd992d5d	-0.074793555
100	0x3d03e2f9	0.03219888
101	0xbdbd7b57	-0.09252041
102	0x3d3e0345	0.046389837
103	0x3dbb73f9	0.091529794
104	0xbc1d015c	-0.009582844
105	0x3e0fc0a0	0.14038324
106	0x3c7c1c74	0.015387643
107	0xbc742e53	-0.014903623
108	0x3e2f7bf3	0.17137127
109	0x3bdbc27f	0.0067065354
110	0xbdcb0d09	-0.09914596
111	0x3c88ed11	0.016714605
112	0xbe490b3a	-0.19633189
113	0xbcadb782	-0.021205667
114	0xbdaee8f2	-0.085405245
115	0xbe1d6709	-0.15371336
116	0x3d9ea072	0.07745446
117	0x3df4f241	0.11960269
118	0x3d2ab787	0.04167893
119	0x3dc59fe8	0.0964964
120	0x3e145961	0.1448722
121	0x3b877375	0.0041336366
122	0xbe09ab5f	-0.13444279
123	0xbdf297de	-0.118453726
124	0x3c9bafb3	0.019004678
125	0x3d3e8c26	0.046520375
126	0x3df79fc9	0.120910235
127	0xbea174a6	-0.31534308

network_body._body_endoder.seq_layers.0.weight f4 [128, 46]
0	0xbd492fbb	-0.049117785
1	0xbd73920c	-0.059465453
2	0xbd41d941	-0.04732633
3	0xbd8c06dc	-0.06837246
4	0x3d8f77f9	0.07005305
5	0x3e6402fe	0.22266766
6	0x3ed3804c	0.4130882
7	0xbc691b65	-0.014227723
8	0xbde6f39a	-0.11276932
9	0x3e0e8be3	0.1392055
10	0x3dd53cb8	0.10411972
11	0x3d83413b	0.06408926
12	0xbd577029	-0.0525972
13	0xbdb9c328	-0.09070426
14	0xbd23a819	-0.039955232
15	0x3ddb8a76	0.10719769
16	0xbe3d7482	-0.18501475
17	0xbe1e81e7	-0.15479241
18	0x3dfd5db4	0.12371388
19	0xbe208282	-0.15674785
20	0xbe36f031	-0.17865063
21	0x3e05e638	0.13076103
22	0x3d9f0d4c	0.07766208
23	0x3d9da8ca	0.076982096
24	0xbd98ad7c	-0.074549645
25	0xbe985c6e	-0.29758018
26	0x3d7c2df5	0.061567266
27	0x3d9f9656	0.07792346
28	0x3e4a8071	0.19775559
29	0x3e768506	0.24074182
30	0xbe2373f6	-0.15962204
31	0x3dff3cbc	0.12462756
32	0x3e508b05	0.20365532
33	0xbe22e058	-0.15905893
34	0xbe47ac2c	-0.19499272
35	0xbedc3e05	-0.43016067
36	0x3cbd7db4	0.023131229
37	0x3a97a42a	0.001156931
38	0x3d2fdb17	0.04293355
39	0x3e434ea9	0.19072975
40	0x3e6d9246	0.2320033
41	0xbe7ee42c	-0.24891728
42	0x3ce96c95	0.028494159
43	0x3e17c1b4	0.14819986
44	0xbe5b8380	-0.21436882
45	0x3e83d7ae	0.25750488
46	0x3e46383c	0.19357389
47	0x3d9588d8	0.073014915
48	0x3e0f99e9	0.14023556
49	0x3d6c2306	0.05765059
50	0x3dac145a	0.08402319
51	0xbddc1119	-0.107454486
52	0xbdb327d5	-0.08747832
53	0xbe120219	-0.14258613
54	0x3e06f454	0.13179141
55	0xbd589ae8	-0.052882105
56	0xbd5516b9	-0.052023623
57	0x3e93d337	0.28872082
58	0xbdb5e560	-0.088816404
59	0xbd066443	-0.03281046
60	0x3c14b901	0.0090773115
61	0x3d4f5dc1	0.05062652
62	0xbaca62b3	-0.0015440792
63	0xbe4d86c3	-0.20070939
64	0x3d3a3e2e	0.045469455
65	0xbb79170c	-0.0038008122
66	0x3e10d700	0.14144516
67	0x3e00855b	0.12550871
68	0x3e1a41c4	0.1506415
69	0x3eb945db	0.36186108
70	0x3e5602f9	0.20899571
71	0xbd390e5b	-0.045179706
72	0x3e0903cb	0.13380353
73	0x3e5385d9	0.20656528
74	0x3cc04549	0.023470538
75	0x3dc5b450	0.096535325
76	0x3c4e0780	0.01257503
77	0xbbfbd9d3	-0.007685879
78	0xbd7097f4	-0.058738664
79	0x3bbaf85c	0.0057058763
80	0x3e214876	0.15750298
81	0x3d10d82f	0.03536242
82	0xbc58204b	-0.013191293
83	0xbed7fff8	-0.42187476
84	0x3d5e8fb6	0.054336272
85	0xbde572f5	-0.11203567
86	0x3d7e1d38	0.062039584
87	0xbdd64758	-0.104628265
88	0xbee24e36	-0.44200295
89	0xbd84ea86	-0.06490044
90	0xbe5b42f1	-0.21412255
91	0x3db2eab5	0.08736173
92	0x3d05375e	0.032523505
93	0xbd919b85	-0.07109741
94	0x3c69536e	0.014241083
95	0xbd9b008f	-0.07568466
96	0xbddbbdf1	-0.10729588
97	0x3da74ce0	0.081689596
98	0x3e6ca0bc	0.2310819
99	0x3e051452	0.12996033
100	0x3dc69af7	0.09697526
101	0xbe3b4a48	-0.18290055
102	0x3df00364	0.11719397
103	0xbc8ee2f2	-0.0174422
104	0xbe26ffeb	-0.16308562
105	0x3e2a3640	0.16622257
106	0xbd437de2	-0.047727473
107	0xbe064550	-0.13112378
108	0xbe25c3d1	-0.1618798
109	0x3f0058b2	0.5013534
110	0x3e4264ac	0.18983716
111	0xbe360a82	-0.17777446
112	0x3e603bfa	0.21897879
113	0x3b69b8b4	0.003566307
114	0x3d8008d6	0.06251685
115	0xbd71cd94	-0.059033945
116	0x3cf0911e	0.029366072
117	0x3db4d410	0.0882951
118	0x3dfd31b0	0.12362993
119	0xbd4624ae	-0.048374824
120	0xbe59b694	-0.21261054
121	0x3b993511	0.0046755155
122	0x3e52c64d	0.20583458
123	0xbe0af884	-0.13571364
124	0x3b3ec8ba	0.0029111342
125	0x3eaaae07	0.33335897
126	0xbe11078e	-0.14163038
127	0xbe2885b5	-0.16457255
128	0xbdd572a0	-0.104222536
129	0x3e64f013	0.22357206
130	0x3dc7172e	0.09721218
131	0x3ce23d35	0.027617076
132	0x3c0ba72c	0.008523744
133	0xbd6e3698	-0.058157533
134	0xbe1b86a9	-0.15188088
135	0x3eb5e3be	0.35525316
136	0xbe12dc4a	-0.14341846
137	0xbe0f4f10	-0.13995004
138	0xbdf9db67	-0.12200051
139	0x3cabade4	0.020956941
140	0xbd936486	-0.07196908
141	0xbd736906	-0.05942633
142	0xbe4052a3	-0.18781523
143	0xbe11adfd	-0.14226528
144	0x3d836a50	0.06416762
145	0x3d389acb	0.045069497
146	0xbe2d48bf	-0.16922282
147	0xbd4dd273	-0.05024953
148	0x3d78586c	0.0606312
149	0xbe089a2b	-0.1334006
150	0x3c777655	0.015103896
151	0xbf04aec4	-0.5182917
152	0x3e130c1d	0.1436009
153	0x3eacc0ed	0.3374094
154	0xbeb653dd	-0.35610858
155	0xbe3a71a5	-0.18207414
156	0xbd34e5b0	-0.04416436
157	0xbe8fa2fe	-0.2805404
158	0xbe05fa5b	-0.13083784
159	0xbd5256ac	-0.051352188
160	0xbc9d10df	-0.019173084
161	0xbe0ef36e	-0.13960049
162	0xba22ce85	-0.00062105834
163	0x3d4096ab	0.04701869
164	0xbe25fa85	-0.16208847
165	0x3e0aa5d4	0.13539821
166	0x3d57c2f8	0.05267617
167	0xbe53d5a3	-0.20686965
168	0xbe84e9b1	-0.25959542
169	0xbd617148	-0.055039674
170	0x3c4aa8a5	0.01236931
171	0xbe53a4a9	-0.20668282
172	0xbdee5192	-0.11636652
173	0xbdeb38dc	-0.114854544
174	0x3e8255f8	0.25456214
175	0x3e13ff0e	0.14452764
176	0x3dd76624	0.10517529
177	0x3e640a2b	0.22269504
178	0xbe022605	-0.12709816
179	0x3ef10764	0.4707595
180	0x3dab5066	0.08364944
181	0x3bf2d503	0.007410647
182	0xbef50338	-0.47854018
183	0xbd10cada	-0.035349704
184	0x3dd37029	0.10324127
185	0x3d27b341	0.040942434
186	0xbdf76852	-0.120804444
187	0x3ebf3e99	0.37352446
188	0xbed55edc	-0.41673934
189	0x3e6dc7ca	0.23220745
190	0x3bfbb08f	0.0076809595
191	0x3bdfd835	0.006831194
192	0xbe804196	-0.25050038
193	0xba8f5312	-0.0010934791
194	0x3e842e1f	0.25816438
195	0xbd9dc1c8	-0.077029765
196	0x3db0efb3	0.08639469
197	0xbe8259e9	-0.2545922
198	0xbe0873d1	-0.1332543
199	0xbd2aa345	-0.041659612
200	0xbe1aca33	-0.15116195
201	0x3d160780	0.036628246
202	0x3e16e6fd	0.14736553
203	0x3e2318a5	0.1592737
204	0xbf0c869b	-0.5489289
205	0x3e367d17	0.17821155
206	0xbdf14730	-0.11781156
207	0xbdf93116	-0.121675655
208	0xbd5be53b	-0.053685408
209	0x3e56c436	0.20973286
210	0xbde9c5ab	-0.11414655
211	0x3d773df6	0.060361825
212	0xbe44430e	-0.19166204
213	0x3ad71417	0.0016409185
214	0xbe239e83	-0.15978436
215	0xbe55978a	-0.20858589
216	0x3eaa78b2	0.33295208
217	0x3d1b6a6b	0.037943285
218	0xbdd1e9ca	-0.1024967
219	0x3df913a5	0.1216195
220	0xbdb93abc	-0.09044406
221	0x3e2846c8	0.16433251
222	0x3d74c92c	0.059762165
223	0xbe659cd2	-0.22423103
224	0x3e5e2009	0.21691908
225	0xbe93c03c	-0.288576
226	0x3dcb2e92	0.09920992
227	0xbdfa3226	-0.12216596
228	0xbf071ba0	-0.5277653
229	0x3dc6283f	0.09675645
230	0xbe9d470f	-0.30718276
231	0x3e01625a	0.12635174
232	0xba2a2d2c	-0.00064917165
233	0x3e10efee	0.14154026
234	0x3d9198ac	0.07109198
235	0x3d4f2f28	0.05058208
236	0x3d41060e	0.047124915
237	0xbdccebce	-0.10005914
238	0xbd019774	-0.031638578
239	0xbe055062	-0.13018945
240	0x3d6ae602	0.05734826
241	0xbe461a8a	-0.19346061
242	0x3ed47306	0.41494006
243	0xbcb8f9f2	-0.02258012
244	0x3e4f2682	0.20229533
245	0x3dd70841	0.10499621
246	0x3e08b7aa	0.13351312
247	0x3e3bf570	0.18355346
248	0xbe080225	-0.13282068
249	0xbdac0d9d	-0.08401034
250	0xbdc19347	-0.09451919
251	0xbd4caf01	-0.049971584
252	0x3dd4bdf1	0.10387791
253	0x3e33d402	0.17561343
254	0x3e3a43c2	0.1818991
255	0x3e700e08	0.23442852

network_body._body_endoder.seq_layers.2.bias f4 [128]
0	0xbb4aaa07	-0.0030924098
1	0xbcd3107f	-0.025764702
2	0xbdedb7fc	-0.11607358
3	0x3d8760ca	0.06610258
4	0x3dd7ff2b	0.10546716
5	0xbd281763	-0.04103793
6	0x3d468a56	0.04847177
7	0x3e053d53	0.13011675
8	0x3dd478f8	0.103746355
9	0x3e07a5be	0.1324682
10	0xbd7de0cd	-0.061981965
11	0xbdb94b1b	-0.09047528
12	0xbb9fcf2e	-0.0048769927
13	0x3d9c3465	0.07627181
14	0x3d850673	0.06495371
15	0xbc18f11d	-0.00933483
16	0x3d06450e	0.0327807
17	0xbdc9b180	-0.098483086
18	0xbdaf6fe4	-0.08566263
19	0x3d8b5ac8	0.068044245
20	0xbdf91653	-0.12162461
21	0xbcc52913	-0.024067437
22	0x3d5fd588	0.054647
23	0x3ca417ac	0.020030819
24	0x3d13e3bc	0.036105856
25	0x3d23331a	0.039843656
26	0x3aef4feb	0.001825807
27	0x3ddd8de5	0.1081808
28	0x3dce3245	0.10068182
29	0xbdbe3d1a	-0.09288998
30	0x3dad9652	0.08475937
31	0x3db4d451	0.08829559
32	0xbc85081c	-0.016239218
33	0xbd7b224b	-0.061312
34	0x3d9316ff	0.071821205
35	0xbe05cb6b	-0.13065879
36	0x3d7bf15f	0.061509486
37	0xbd94b31d	-0.07260726
38	0x3cb0c659	0.021578955
39	0x3d129d8c	0.03579478
40	0x3d74ef1d	0.05979835
41	0x3e349515	0.17634995
42	0x3cf9dd64	0.030501075
43	0xbd758b80	-0.05994749
44	0xbd4d60b7	-0.050141063
45	0x3dcd41bb	0.10022303
46	0x3d0827f2	0.03324122
47	0xb96b2aa3	-0.0002242723
48	0x3e50c34f	0.20387004
49	0x3df49e45	0.1194425
50	0xbca410c2	-0.020027522
51	0xbd8a3ea2	-0.067502275
52	0x3b281fb1	0.0025653655
53	0x3e2266b8	0.15859497
54	0x3d97484e	0.07386838
55	0x3cb3e440	0.021959424
56	0x3d92fcb7	0.07177108
57	0x3e0f3d67	0.13988267
58	0x3ba1a390	0.0049328282
59	0xbc7bb4e6	-0.015362954
60	0x3b7a02ee	0.003814872
61	0x3d2083be	0.03918814
62	0xbceae7af	-0.028674928
63	0x3ddccfe0	0.107818365
64	0xbc4b556a	-0.012410501
65	0x3d1a9bc8	0.03774622
66	0x3d87f44c	0.06638393
67	0x3d94efee	0.072723255
68	0x3de82a58	0.113362014
69	0x3e2a4afa	0.16630164
70	0xbd8587fb	-0.06520077
71	0xbc6fc70a	-0.014634857
72	0x3df232f3	0.11826124
73	0x3cc86bc0	0.024465442
74	0xbd2d0202	-0.042238243
75	0x3d0b96b6	0.034079276
76	0x3d60c45c	0.054874763
77	0x3db38d8f	0.087672345
78	0xbe22d8ec	-0.15903062
79	0xbc9aa089	-0.018875377
80	0x3e0325c7	0.1280738
81	0xbdb9db52	-0.09075035
82	0x3d0641cd	0.032777596
83	0xbb854925	-0.0040675574
84	0x3e382349	0.1798221
85	0x3d7cb8a6	0.061699532
86	0xbe2de06c	-0.16980141
87	0x3e380db7	0.17973982
88	0xbe2dacd5	-0.16960461
89	0x3c00c5a0	0.0078596175
90	0x3dc8b64b	0.098003946
91	0x3db5a6e7	0.08869725
92	0x3a76f128	0.00094200904
93	0x3c956b99	0.018239783
94	0x3d734acb	0.0593975
95	0x3d218cf2	0.039441057
96	0xbcc64b3f	-0.024205802
97	0xbbbb8bd9	-0.0057234582
98	0xbd665c95	-0.056240637
99	0xbc5d7193	-0.013515848
100	0xbd878426	-0.06617002
101	0x3ca62709	0.020282285
102	0xbc2471dc	-0.010036912
103	0x3d9f39aa	0.077746704
104	0x3de0486f	0.109513156
105	0x3e17fea3	0.1484323
106	0x3e950cf6	0.2911145
107	0xbc7aca89	-0.015307077
108	0x3e2de764	0.169828
109	0xbd5733b9	-0.05253956
110	0x3a2b6901	0.0006538779
111	0x3dbb2992	0.09138788
112	0x3b420a57	0.0029608214
113	0x3d93136f	0.07181441
114	0x3d4117c8	0.04714182
115	0x3d7ebfd5	0.062194664
116	0x3e933058	0.2874782
117	0x3dabbc84	0.08385566
118	0x3bcadca4	0.006190853
119	0xbdcc5176	-0.09976475
120	0xbbfa5433	-0.007639432
121	0x3be2bbb3	0.006919348
122	0x3de320aa	0.110902146
123	0xbddd6924	-0.108110696
124	0x3e0f02e6	0.1396595
125	0x3d9a26d5	0.07526938
126	0xbd204344	-0.03912665
127	0x3e2b2c52	0.16716126

network_body._body_endoder.seq_layers.2.weight f4 [128, 128]
0	0xbc251b00	-0.010077238
1	0x3e6c1493	0.23054723
2	0x3df76d5a	0.12081404
3	0xbcb5b36c	-0.022180282
4	0x3c6992d5	0.014256199
5	0xbd2bcbe7	-0.041942503
6	0xbdd0f8c7	-0.102037005
7	0xbd3c3e95	-0.04595812
8	0x3d198eb5	0.03748961
9	0xbdfc8986	-0.12330918
10	0x3e0cf6a6	0.13765964
11	0xbd1bc58d	-0.038030196
12	0xbce83902	-0.028347496
13	0x3e2bfc90	0.16795564
14	0xbccae020	-0.024765074
15	0x3d643e4f	0.055723485
16	0x3dabadc1	0.0838275
17	0xbe0b2a14	-0.1359027
18	0xbd42b588	-0.047536403
19	0x3dab0744	0.08350995
20	0xbd9ed73a	-0.07755895
21	0xbcdec767	-0.027194692
22	0x3d9fdf3b	0.0780625
23	0x3d3e4714	0.046454504
24	0xbe45add7	-0.19304596
25	0x3e20e7de	0.1571345
26	0xbd30affa	-0.043136574
27	0x3d9ce429	0.076607056
28	0x3df71054	0.12063661
29	0x3e0bfb1f	0.13670014
30	0x3cf5d779	0.030009972
31	0x3d4abe98	0.04949817
32	0x3e43b5b6	0.19112286
33	0x3d5b9438	0.05360815
34	0xbe1e586f	-0.15463422
35	0x3dbca6fd	0.09211538
36	0xbe10643b	-0.14100735
37	0xb95439c4	-0.00020239415
38	0xbd8e388b	-0.069443785
39	0x3bd8d7b6	0.0066175116
40	0x3e4a5c54	0.19761783
41	0x3de8330a	0.1133786
42	0x3d5e655f	0.054295894
43	0xbdf87f13	-0.121336125
44	0x3e05017d	0.12988849
45	0x3dfe85a3	0.12427833
46	0x3db7a253	0.08966508
47	0x3dfffacc	0.124990076
48	0x3e7e9bcf	0.24864124
49	0x3d1b948c	0.037983462
50	0x3e0fc878	0.14041317
51	0x3d96f46e	0.0737084
52	0xbd4dc3bc	-0.050235495
53	0xbd254941	-0.040353063
54	0xbcfb5908	-0.030682102
55	0x3dfefa95	0.124501385
56	0x3ce6a397	0.028154178
57	0x3e00d358	0.12580621
58	0x3e3affe8	0.18261683
59	0x3bc8cb6d	0.006127766
60	0xbd81039a	-0.06299515
61	0x3ca8b274	0.020592906
62	0x3ddf6ed5	0.109098114
63	0xbdc2626c	-0.09491429
64	0x3dd680d8	0.10473794
65	0xbdddc6bd	-0.10828922
66	0xbc2e1f27	-0.0106275445
67	0xbea4d341	-0.32192424
68	0x3cb614be	0.022226688
69	0xbd5548bf	-0.05207133
70	0xbe1ee654	-0.1551755
71	0x3d014296	0.031557642
72	0xbd9f1365	-0.07767371
73	0xbbae18da	-0.005313021
74	0xbdcd9258	-0.100376785
75	0xbe670205	-0.22559364
76	0x3da7d45c	0.08194801
77	0x3dbe71aa	0.092990234
78	0x3d50979f	0.050925847
79	0x3decc09a	0.11560173
80	0xbe0b37ba	-0.13595477
81	0xbd12ad28	-0.035809666
82	0xbccdd586	-0.02512623
83	0x3d817017	0.063202076
84	0xbda6ddb6	-0.08147757
85	0xbe8032f3	-0.2503887
86	0x3b9f33b2	0.0048584575
87	0xbe3aad73	-0.18230228
88	0xbcc2e4c8	-0.023790732
89	0x3e3345ec	0.17507142
90	0xbaa5238c	-0.0012599095
91	0xbd6f54df	-0.05843055
92	0xbd8ef17e	-0.06979655
93	0xbdefa7c0	-0.11701918
94	0xbda0b547	-0.07847076
95	0xbd523a17	-0.05132493
96	0xbdbb85d0	-0.09156382
97	0xbe79c952	-0.24393204
98	0xbceea520	-0.029131472
99	0xbdadde4c	-0.084896654
100	0xbe39654f	-0.18105052
101	0x3db7874f	0.08961355
102	0xbdb84ff0	-0.08999622
103	0x3e380e3e	0.17974183
104	0xbc27e148	-0.010246582
105	0x3e1711c0	0.14752865
106	0xbe0e7234	-0.13910753
107	0x3cb9ad10	0.02266553
108	0x3cc22e8f	0.023703841
109	0x3e0a6d73	0.13518314
110	0x3d9202b4	0.07129422
111	0x3cfa45d9	0.030550884
112	0x3d351610	0.044210494
113	0x3cad6bf2	0.021169636
114	0x3e032065	0.12805326
115	0x3de03eb6	0.10949461
116	0x3e976652	0.29570252
117	0xbc8efbce	-0.017454054
118	0xbe99b9d6	-0.30024594
119	0x3d65e23a	0.05612395
120	0x3c910a28	0.017705038
121	0x3dc8c051	0.098023064
122	0xbe1e9617	-0.15486942
123	0x3dc5cda6	0.09658365
124	0x3d4656ae	0.048422508
125	0x3d81234f	0.06305563
126	0xbe26ce56	-0.16289648
127	0x3cd93051	0.026512297
128	0xbe47db1b	-0.19517176
129	0xbd41d249	-0.047319684
130	0x3d91790a	0.071031645
131	0xbe882087	-0.26587316
132	0xbd5da12b	-0.05410878
133	0x3cd89e2c	0.02644261
134	0x3dfb03f1	0.12256611
135	0x3da534b4	0.08066693
136	0x3dad21a5	0.08453683
137	0xbd083abc	-0.03325914
138	0xbcdf7879	-0.027279126
139	0x3cb9604d	0.022628928
140	0x3cd99ec4	0.026564963
141	0xbccd7871	-0.025081845
142	0xbdb48fa3	-0.08816459
143	0x3d3deace	0.046366505
144	0xbe896e18	-0.26841807
145	0xbe044902	-0.12918475
146	0x3e5b0a66	0.21390685
147	0x3d18d2fc	0.037310585
148	0xbdd9f28a	-0.10641964
149	0x3de25211	0.11050809
150	0xbd97431a	-0.073858455
151	0xbdd28eb9	-0.102811284
152	0x3b271d79	0.0025499745
153	0xbe99bd24	-0.30027115
154	0xbbb34b0f	-0.005471594
155	0xbe851d15	-0.2599875
156	0xbbce96b0	-0.0063045844
157	0xbe34174e	-0.17587015
158	0x3e485e7a	0.1956729
159	0x3df27b54	0.11839929
160	0x3db8e8fa	0.09028812
161	0x3b9b52a2	0.004740075
162	0xbc27de7a	-0.010245914
163	0xbc93bc22	-0.018034045
164	0xbd8c2164	-0.06842306
165	0xbd068187	-0.03283837
166	0x3dc02074	0.0938119
167	0xbe4cd896	-0.20004496
168	0xbc8f4575	-0.017489174
169	0x3ca7099b	0.020390322
170	0xbe0d3d5a	-0.13792935
171	0xbbb14410	-0.005409725
172	0xbbfaa7e5	-0.007649409
173	0x3cebd8d8	0.028789923
174	0xbe502ab7	-0.20328794
175	0x3e500d6d	0.20317622
176	0xbc847e74	-0.016173579
177	0xbcce2d3f	-0.02516806
178	0xbddf8e55	-0.109158196
179	0x3d183f5c	0.0371698
180	0xbdcaf287	-0.0990954
181	0x3d052db4	0.03251429
182	0x3cb08557	0.021547956
183	0xbcac064c	-0.020999096
184	0xbd6e6473	-0.058201265
185	0x3c8921a3	0.016739672
186	0x3cda6262	0.02665824
187	0x3dd8872d	0.10572658
188	0x3e761ec4	0.24035174
189	0xbe7ae2a8	-0.24500525
190	0xbe18faae	-0.14939377
191	0x3d80dd54	0.06292215
192	0xbdcfe304	-0.10150722
193	0xbc7f60a9	-0.01558701
194	0x3d1edabc	0.03878282
195	0x3c39f434	0.0113497265
196	0x3b897ee0	0.004196033
197	0xbe6830d9	-0.22674884
198	0xbe3e8259	-0.18604411
199	0xbe207405	-0.15669258
200	0x3e2ba915	0.16763718
201	0xbcdedd93	-0.027205264
202	0x3d8dd2fd	0.069250084
203	0xbd4d9352	-0.050189324
204	0x3db141ba	0.086551145
205	0xbc6f5488	-0.014607556
206	0xbd0774f0	-0.033070505
207	0xbd2bc270	-0.041933477
208	0xbd91a52b	-0.071115814
209	0xbe04c06b	-0.12964027
210	0x3d544eb1	0.05183286
211	0x3c8ad230	0.016945928
212	0xbdd6d335	-0.10489503
213	0x3de05bc1	0.10955001
214	0xbe92b847	-0.28656217
215	0xbc2c99ee	-0.010534747
216	0xbe01e401	-0.12684633
217	0x3e29db4f	0.16587566
218	0x3d7cfdb0	0.061765373
219	0xbdd95453	-0.10611787
220	0x3e43ae90	0.19109559
221	0xbe93905b	-0.28821072
222	0xbd55e926	-0.0522243
223	0xbc8a6c59	-0.016897367
224	0x3d09482e	0.0335161
225	0xbdecca0e	-0.115619764
226	0xbd413a1d	-0.04717456
227	0xbdbdf722	-0.092756525
228	0x3c9b7855	0.018978277
229	0x3db72299	0.08942146
230	0x3e105567	0.14095078
231	0xbdd2d5d0	-0.10294688
232	0x3d55115f	0.05201852
233	0x3cfad2d9	0.030618118
234	0x3e3a72e1	0.18207885
235	0xbdb8c0ea	-0.090211704
236	0xbb9a46a7	-0.0047081294
237	0x3cfb0e48	0.030646458
238	0x3dc69ac4	0.09697488
239	0x3c87c72a	0.016574461
240	0xbddb5cee	-0.10711084
241	0xbbdbe47d	-0.0067105875
242	0xbe3ff8ab	-0.18747203
243	0xbdec3dd7	-0.115352325
244	0xbd9a9990	-0.07548821
245	0xbdc61caf	-0.0967344
246	0xbd1b3578	-0.03789279
247	0xbe4667c4	-0.19375521
248	0x3d3b7cba	0.045773245
249	0x3dbf9684	0.093548805
250	0xbe3c4638	-0.18386161
251	0x3b87f4a4	0.0041490365
252	0x3c5b0fcc	0.0133704655
253	0x3e009ccf	0.12559818
254	0x3da57c66	0.08080368
255	0x3cb7c185	0.022431144

network_body.observation_encoder.processors.0.normalizer.running_mean f4 [21]
0	0x3f7f0b4b	0.99626607
1	0x3b72fb57	0.003707608
2	0x3dfbfd3d	0.12304161
3	0x3f7f1ff8	0.99658155
4	0x3b5cc77b	0.0033688236
5	0x3df918a5	0.12162904
6	0x3f7f04c3	0.9961664
7	0x3b78b585	0.003794999
8	0x3dfae4c6	0.12250666
9	0x3f7f46d8	0.99717474
10	0x3b3688d4	0.0027852552
11	0x3df8a31c	0.12140486
12	0x3f7f43d6	0.99712884
13	0x3b39785a	0.0028300495
14	0x3df89780	0.12138271
15	0x3f7f04df	0.9961681
16	0x3b787569	0.0037911779
17	0x3dfb6632	0.122753516
18	0x3f7f0cb8	0.9962878
19	0x3b70b357	0.0036727989
20	0x3dfadee9	0.12249548

network_body.observation_encoder.processors.1.normalizer.running_mean f4 [25]
0	0xbc9d4ef9	-0.019202696
1	0x3dadaa6d	0.08479772
2	0xbcbd5f87	-0.02311684
3	0x386681ec	5.4957272e-05
4	0x38bbbe49	8.952298e-05
5	0xbc9ddc88	-0.019270197
6	0x3dadc5a7	0.08484965
7	0xbcbdf8ed	-0.023189986
8	0x38acf4e5	8.247214e-05
9	0x38b8ee09	8.818141e-05
10	0xbc9e6d1a	-0.019339133
11	0x3daddbbb	0.08489176
12	0xbcbe8fe6	-0.023261975
13	0x38eb80e7	0.00011229683
14	0x38b4c589	8.619863e-05
15	0xbc9f00a2	-0.019409481
16	0x3dadec4a	0.08492334
17	0xbcbf23ee	-0.023332562
18	0x39179ac9	0.00014458144
19	0x38af2873	8.3521845e-05
20	0xbc9f9729	-0.019481258
21	0x3dadf720	0.08494401
22	0xbcbfb39c	-0.023401074
23	0x393c2844	0.00017944077
24	0x38a80360	8.011493e-05
