UAV NS for Power Lines Monitoring/Assets/NN models/UAVSS.onnx (onnx, 96281 bytes, 10 tensors)

59 f4 [21]
000000 c7 d4 15 3e bb d3 15 3e f8 7f 36 3e 00 d9 16 3e
       0.1463195 0.1463155 0.17822254 0.14731216
000010 f2 d6 16 3e a8 0b 3a 3e a4 8d 12 3e 2e 8c 12 3e
       0.14730433 0.18168509 0.14311844 0.14311287
000020 23 c8 32 3e c0 e6 16 3e 6d e5 16 3e 2b 0d 38 3e
       0.17459159 0.14736462 0.14735956 0.17973773
000030 9e 7d 14 3e 25 7c 14 3e 98 ef 37 3e e8 c3 12 3e
       0.14501044 0.14500482 0.17962492 0.14332545
000040 99 c2 12 3e 5a 87 33 3e 83 93 14 3e 92 91 14 3e
       0.14332046 0.17532101 0.14509396 0.14508656
000050 08 7d 38 3e
       0.18016446

62 f4 [25]
000000 2c ef 3a 40 82 81 a7 3f 93 0a 37 40 1a c3 12 3d
       2.920848 1.3086398 2.8600204 0.035830595
000010 ad 04 44 3d fb 6e 3c 40 81 6f a8 3f 74 6d 38 40
       0.04785602 2.9442737 1.3159028 2.8816805
000020 8f 7c 14 3d ea 6f 47 3d e4 12 3e 40 89 66 a9 3f
       0.0362516 0.048690714 2.969903 1.3234416
000030 62 f0 39 40 bb 4b 16 3d a1 63 4b 3d 42 dd 3f 40
       2.9052968 0.036693316 0.04965556 2.9978795
000040 cb 67 aa 3f 71 95 3b 40 74 34 18 3d 63 17 50 3d
       1.3312925 2.9309962 0.0371594 0.050803553
000050 6f d0 41 40 6e 74 ab 3f 7f 5e 3d 40 5e 23 1a 3d
       3.0283468 1.3394907 2.9588926 0.037631385
000060 a0 b0 55 3d
       0.052170396

action_model._discrete_distribution.branches.0.bias f4 [6]
000000 87 68 05 3e 8f 45 31 3c 2c 79 2e bd 25 3a 12 3e
       0.13028155 0.010819807 -0.042596027 0.14279993
000010 73 7f 93 be ab b7 18 3e
       -0.28808174 0.14913814

action_model._discrete_distribution.branches.0.weight f4 [6, 128]
000000 a9 3a 07 bf f1 24 e3 bd 34 73 a5 3e 6b 73 b9 bd
       -0.52823883 -0.110910304 0.32314456 -0.09055217
000010 28 a9 09 bf af ab 91 3e 1f 29 2d 3e 55 9c 6b be
       -0.53773737 0.28451297 0.16910218 -0.23008855
000020 9f 35 00 bd c2 d4 25 be ce c9 46 3c 4c da a4 3c
       -0.031301137 -0.16194442 0.012133075 0.020123623
000030 cf cb 1e 3d b6 88 55 be bd ec 24 bf 43 94 da 3d
       0.038768586 -0.20852932 -0.64423734 0.1067281
000040 41 79 27 bf fd 80 17 3e 3e 2d 29 3d ae 2e 7d 3d
       -0.65419394 0.14795299 0.041302912 0.061812095
000050 df e8 a3 3e 40 a7 24 be be 37 38 be 5a f4 c4 bb
       0.32013604 -0.16079426 -0.17990014 -0.0060105743
000060 93 27 f6 bd 5e a1 21 3f 24 39 b0 be a5 9d d9 3d
       -0.12019267 0.6313685 -0.34418595 0.106257714
000070 ab 03 26 bd 41 8d a8 3e 05 19 70 3e e3 e5 bc be
       -0.04053084 0.32920268 0.23447044 -0.3689414
000080 ad d3 64 3e 45 04 79 3e cd 1e 8e be f1 bc 8d 3e
       0.22346373 0.24318035 -0.27757874 0.27683213
000090 0f 56 21 3e 35 bb b1 3e 96 50 17 3e 75 c6 e2 bd
       0.15755485 0.3471314 0.14776835 -0.11073009
0000a0 d4 a7 b7 bd ee 63 b9 3c b5 31 1d 3e 1a 48 04 3e
       -0.089675575 0.022630658 0.15350993 0.1291813
0000b0 f7 a6 01 3d 0a 56 aa 3d 70 20 c7 be 1e 73 c8 bd
       0.03165337 0.08317192 -0.38891935 -0.09787582
0000c0 89 bf ef 3d 2f 22 2f be f8 8d 67 3d a7 fd 80 bd
       0.11706454 -0.17102884 0.056531876 -0.0629838
0000d0 20 f9 60 3e 46 88 03 be 6f 9e 27 3d 44 ea 43 bb
       0.21970034 -0.12844953 0.04092258 -0.0029894272
0000e0 60 9a 53 3e 5a 13 81 bd e3 1e 21 be 9a cc 76 3d
       0.20664358 -0.06302519 -0.15734439 0.060253717
0000f0 fd 92 b2 3d ab af b4 3d 75 ec 36 be ca 26 3a be
       0.08719442 0.088225685 -0.17863639 -0.1817886
000100 76 93 6d 3c cc be 80 bc 93 c9 8c 3d 33 36 17 bf
       0.014500489 -0.015715979 0.06874385 -0.59067076
000110 ba fb 25 bc 97 8e 5c 3e 41 e0 ba be e3 d5 9e be
       -0.010130817 0.21538769 -0.36499217 -0.31022558
000120 60 73 8d 3d 0c 89 0b be d3 39 4d 3e cf cc 7c be
       0.06906772 -0.13626498 0.2004159 -0.24687503
000130 33 97 85 3e 00 73 06 bf 53 f5 08 be 0a df 2b bd
       0.26091918 -0.52519226 -0.13374834 -0.041960754
000140 a3 36 11 3e 02 a0 53 bd 28 ec 52 3e be 24 9b 3d
       0.14180999 -0.051666267 0.20597899 0.075753674
000150 50 61 a8 3e af 8b 45 be 53 bd ae 3e d5 03 a3 be
       0.32886744 -0.19291566 0.34128818 -0.3183886
000160 e7 c9 6c 3e 44 1f 7d bd bf 3f 69 3e 5f 03 99 be
       0.23123895 -0.061797395 0.22778223 -0.29885384
000170 fe e9 67 3e cc e8 4f 3e 88 6c 31 3d 05 50 d9 bd
       0.22647855 0.20303649 0.043316394 -0.10610966
000180 e4 6b cf be 72 6f fe 3c 49 f6 da 3e 77 04 06 3e
       -0.40512002 0.031059 0.42766026 0.1308764
000190 4d d0 00 bf 67 d2 24 3d 6e 4a 0b 3e 77 73 86 3e
       -0.5031784 0.040239718 0.13602611 0.26259968
0001a0 da 28 82 3d c1 da 14 3d eb ab d6 3d 44 96 3f be
       0.06355448 0.036341432 0.104820095 -0.18709666
0001b0 a7 6e 99 3d 94 d1 00 3e ec ef 60 be 56 02 e3 3d
       0.074918084 0.12579948 -0.21966523 0.1108443
0001c0 37 5a 3a 3e 74 bf 8e 3e 4c 63 b6 3d b3 c6 d0 be
       0.18198477 0.27880442 0.08905658 -0.40776595
0001d0 fd 14 28 3d e0 8c 01 be e7 d9 55 bc 84 a3 9a 3e
       0.04103564 -0.12651396 -0.01305244 0.30202878
0001e0 ee 76 3b 3e e3 e2 db bb bf 9d 22 be 0b 71 8d 3c
       0.18307087 -0.0067103966 -0.15880488 0.017265817
0001f0 87 2f b1 bd f2 4e fb 3d ea d5 75 3e 22 2e ba 3d
       -0.08651643 0.12270917 0.24007383 0.090908304
000200 bd 33 38 3e 43 dd 83 3e c1 97 a2 3e 5a 94 34 3e
       0.17988487 0.25754747 0.31756404 0.17634717
000210 e4 58 12 3f 91 4a a9 bd 8c 3e b3 bd c6 e3 81 3e
       0.57166886 -0.082661755 -0.08752164 0.2536909
000220 83 85 07 be 19 17 03 3f 51 22 88 3e 36 77 89 be
       -0.13234524 0.5120712 0.2658868 -0.26848763
000230 84 dc 8c 3e e8 d4 a4 3e 3a b5 00 be d7 e0 a4 3e
       0.2751199 0.32193685 -0.12569132 0.3220279
000240 37 16 30 be 20 47 35 3e 5c e9 5b bd b9 2b 66 be
       -0.17195974 0.17702913 -0.053689346 -0.22477616
000250 01 7e 86 3e 59 1e e1 bd a6 8a 12 3f fd cc 17 3e
       0.26268008 -0.109921165 0.5724281 0.1482429
000260 79 39 58 3e 0a e9 03 3f 14 1e 00 be 6f 18 79 3d
       0.21115674 0.51527464 -0.12511474 0.060814317
000270 04 34 eb 3a 42 3c 10 3e 4d 84 6a 3d 3d 85 db 3e
       0.0017944579 0.14085487 0.057255078 0.4287509
000280 5f 87 71 bd 9f ef 65 bc b8 0c a8 bd d6 82 7c 3e
       -0.05896699 -0.014034181 -0.08205551 0.24659285
000290 47 e4 0b 3e 58 a2 13 3d e5 48 94 bd 53 5b f5 3e
       0.136613 0.036043495 -0.07240466 0.47921237
0002a0 39 6a a4 bd 84 ee 15 3e 44 08 2b be 4d 4e 36 bd
       -0.08028073 0.14641768 -0.16702372 -0.044508267
0002b0 7f ea 93 be df 2a 1a 3f 5c ca 23 be 57 7f 90 3e
       -0.28889844 0.60221666 -0.15995163 0.28222153
0002c0 21 34 38 be 00 cd d9 bc 03 4d 94 3e eb b6 83 be
       -0.17988636 -0.02658701 0.28965005 -0.25725493
0002d0 7d 79 db 3e 25 9e 81 3e 54 18 d0 3e b9 a7 13 3e
       0.42866126 0.25315967 0.4064356 0.1441945
0002e0 71 8f 1f 3e b0 42 32 3e d2 1c a2 3e 22 72 5a 3e
       0.15582062 0.17408252 0.31662613 0.213326
0002f0 f7 db 50 3e 17 f7 75 3e 48 68 b9 3e b7 6f bd 3d
       0.2039641 0.24020039 0.36212373 0.092498235
000300 5c 10 7d 3e a6 3a c5 3c 1f 28 d9 3d 0a c3 ef 3e
       0.24713272 0.024075817 0.106033556 0.4682849
000310 60 bb fc 3e 19 37 c7 bc eb 1d 12 3e 4e 68 02 3e
       0.49361706 -0.024318265 0.14269225 0.12735102
000320 58 9a ca 3c 0d 4f f6 3e e2 d0 3a be 90 6a 8d 3e
       0.0247318 0.48107186 -0.18243745 0.27620363
000330 60 18 56 3e ae aa 0d 3f 27 93 8f 3e 6f 75 ed 3d
       0.20907736 0.5533856 0.28041956 0.11594664
000340 1a bb 7c 3e 14 bc c4 be 15 29 08 3e a7 7a 5b 3e
       0.24680749 -0.38424742 0.13296922 0.21433507
000350 4c 19 f7 3e ae 1e fb 3e 66 bb 45 3e cc 36 6b 3e
       0.48261487 0.49046844 0.19309768 0.22970122
000360 03 b5 05 3b 0e 83 65 3c a7 72 a1 3e 1c 71 b1 3e
       0.002040208 0.014008297 0.31532785 0.34656608
000370 2f d4 38 3c 3d 6e 9a be 69 30 bb 3c 47 d9 c3 3e
       0.011281057 -0.3016223 0.022850232 0.38251707
000380 db 24 15 3e ad 1b 01 3e f7 90 a4 3e 32 8f 3a 3e
       0.1456484 0.12608214 0.3214185 0.18218687
000390 5e a1 b4 3e ef d5 f3 3d e8 9f bd 3d 78 88 57 be
       0.35279363 0.11906039 0.09259015 -0.21048152
0003a0 c2 fd 3f 3e d3 da 74 3d fa f8 a1 3e b2 11 04 3e
       0.18749145 0.059779 0.31635267 0.12897375
0003b0 47 b1 88 3e 08 32 ea 3d e6 76 a3 3e e4 29 2b be
       0.26697752 0.11435324 0.3192665 -0.16715199
0003c0 8d f9 a1 be 88 25 22 bd c3 41 4f 3e ae 1b 31 be
       -0.31635705 -0.039586574 0.2023993 -0.17295715
0003d0 18 c9 cd bc 31 2f d4 3e 53 5c 1e 3d fd d6 46 3d
       -0.025120303 0.41442254 0.038662266 0.048544873
0003e0 9f 73 3f be 7f 8d 59 3e 30 4a a4 3e 90 2f f3 3d
       -0.1869645 0.21245383 0.3208785 0.11874306
0003f0 c0 55 11 3e fc 3a 85 3e a6 36 95 3e c2 54 0f be
       0.14192867 0.26021564 0.29143256 -0.13997176

network_body._body_endoder.seq_layers.0.bias f4 [128]
000000 37 65 af bd f4 97 f2 be a2 1a 9e be 8d 32 f8 be
       -0.08564227 -0.47381556 -0.30879694 -0.48476067
000010 d5 b4 b3 bf a0 38 98 bf d1 8b 66 bf cc 66 1c bf
       -1.403956 -1.189228 -0.9005709 -0.61094356
000020 e7 46 7c bf cc c3 ae bf 59 32 8c bf 8a 20 5e 3e
       -0.9854569 -1.3653502 -1.0952865 0.216921
000030 a1 6d a1 bc db f1 69 bf 5d 4b b1 3e 3e 35 86 bf
       -0.019705595 -0.9138467 0.3462781 -1.0484998
000040 d2 1a c5 be b3 76 8d be ef 52 4d bf d3 6a 70 bf
       -0.38497025 -0.27629623 -0.8020467 -0.93913
000050 ae 62 e2 3e 45 46 b8 bf 0c 59 f5 be 2b 1f 74 bf
       0.44215912 -1.4396445 -0.479195 -0.9536006
000060 95 bf de be d1 9e 94 3d bd cb 5f bf 7c 2d 1b bf
       -0.4350554 0.07256854 -0.87420255 -0.6061628
000070 81 ed c3 bf cf 77 ff be 44 f8 40 bf bb 2a bf bd
       -1.5306855 -0.49896094 -0.75378823 -0.09334322
000080 b2 8f 99 be b9 34 37 bf e4 fb 00 bf 39 30 ca bd
       -0.29992443 -0.71564823 -0.50384355 -0.09872479
000090 f8 d5 61 3d 99 af 01 bf 63 ee b7 be d3 64 61 bf
       0.055135697 -0.50658566 -0.35924062 -0.8804447
0000a0 c4 bc 3e bf 5d b2 6f be de 9d 95 bf 43 3d df be
       -0.74506783 -0.23407884 -1.1688802 -0.43601426
0000b0 1d 22 0a 3f 22 59 a8 bd 1b d7 4f be d0 1a f8 3d
       0.539583 -0.08220126 -0.202969 0.12114489
0000c0 39 7f 4a bf 6c 83 39 bf 03 86 43 3d d8 03 8c bf
       -0.79100376 -0.7246616 0.047735225 -1.0938673
0000d0 dd 25 a1 bf 34 1c 13 bf 13 fe cc bf 13 ec 24 bf
       -1.258968 -0.5746491 -1.6015037 -0.6442272
0000e0 76 16 99 be d9 14 74 be d7 17 1d 3e 42 24 78 3e
       -0.2989995 -0.23836078 0.15341125 0.24232581
0000f0 c6 dd c6 3d 04 35 2a bf 22 d0 97 bf 66 d5 98 bf
       0.09710269 -0.66487145 -1.1860392 -1.1940124
000100 bd 92 7c 3e 70 1d 9e be 42 91 b7 be a0 78 6c bf
       0.24665351 -0.30881834 -0.3585301 -0.9237156
000110 25 c1 7c bf d4 02 88 bd a2 d7 22 bf 3f 7c 32 3c
       -0.98732215 -0.066411644 -0.6361028 0.01089388
000120 f8 3f d2 be c3 82 b5 3e 9f dd 6e bf 54 63 23 3e
       -0.4106443 0.35451326 -0.93306917 0.1595586
000130 e4 70 35 bf e4 90 3f bf fa d2 e3 be f1 29 bd be
       -0.7087538 -0.7483046 -0.444969 -0.3694606
000140 7b 6b ad be 7e f9 40 3f 31 1e 29 bf f8 e6 7e be
       -0.33871064 0.75380695 -0.66061693 -0.24892795
000150 14 fd 38 be 2f f3 b3 bf e9 a2 55 3d 0c 21 db be
       -0.18065292 -1.4058589 0.052157316 -0.4279865
000160 81 35 2b bf 4e 94 1f bf 5e 39 26 bf 13 00 ef 3d
       -0.66878515 -0.6233567 -0.64931285 0.11669936
000170 4e 54 8a 3c 16 fc b0 bd 7e 11 7b be f3 61 6e 3e
       0.016885903 -0.086418316 -0.24518391 0.23279552
000180 77 87 2a bf 08 5e 42 3e e8 e6 30 bf f8 62 f8 be
       -0.6661295 0.18981183 -0.69102335 -0.48513007
000190 15 7e e4 bf 3d b9 c4 bd 69 7b ac bf 06 52 ae bd
       -1.7850977 -0.09605644 -1.3475162 -0.085117385
0001a0 3a ad 57 be a0 14 b7 bf f4 01 33 bf 98 4f 2a bf
       -0.21062174 -1.4303169 -0.69924855 -0.665277
0001b0 8e b0 ce be 1b 62 67 3e aa 2f 06 3e 9d 75 9e bf
       -0.40369076 0.22596018 0.1310412 -1.2379643
0001c0 77 d5 5f bd 37 7d 06 be 26 61 82 bf 35 09 1f be
       -0.054646935 -0.13133703 -1.0185897 -0.15530856
0001d0 c4 42 fd 3e 6b ea 38 bf e1 41 8d bf 9f 3d 4f bf
       0.49465 -0.72232693 -1.103573 -0.809534
0001e0 61 a5 64 bf ef 58 ff be 0e a0 5b bf c0 c8 2d bf
       -0.8931485 -0.49872538 -0.857911 -0.67884445
0001f0 a2 73 af be 20 09 de be c4 22 86 bf 33 6f df 3e
       -0.34267908 -0.43366337 -1.047936 0.43639526

network_body._body_endoder.seq_layers.0.weight f4 [128, 46]
000000 8f ab 8b 3d 86 fd 02 be e5 74 27 3e 3f 62 e0 be
       0.068198316 -0.12792024 0.16353185 -0.43824956
000010 9b 98 cc 3e 31 3e 00 3f 73 1a 15 3e 8f 03 50 bd
       0.3996018 0.50094897 0.14560871 -0.050784644
000020 65 bf 2f bf 7f 5a d8 be b1 1e d4 3e 8f 59 0a 3f
       -0.6865142 -0.42256543 0.41429666 0.54042906
000030 6e 19 99 3e 72 8f db be 9b cd 1f bf 14 b7 a2 3e
       0.29902214 -0.42882878 -0.62423104 0.31780303
000040 ba c5 43 be 75 2d 95 bd 5a 7e a1 3e ff 62 90 be
       -0.19118395 -0.07284061 0.3154171 -0.28200528
000050 dd d9 21 bf bd 86 49 3f 08 c6 50 3e e3 33 60 3e
       -0.6322306 0.7872122 0.20388043 0.21894793
000060 20 47 8b bc 09 2e 83 be 45 cb 76 3e 51 0b a2 3d
       -0.017001688 -0.2562106 0.24100979 0.07912315
000070 46 2b 12 bd 7f 36 c3 3e 07 c4 41 3d 45 01 b2 be
       -0.0356858 0.38127515 0.047306087 -0.34766594
000080 9e 8a b6 3d eb 2a 65 3e 17 29 93 3d 5b 7c 0d 3f
       0.08913158 0.22379653 0.07185572 0.55267876
000090 5d b0 e7 be 5c 6c d4 bc 51 c2 8b 3d 81 e8 2f be
       -0.45251742 -0.025930576 0.06824172 -0.17178537
0000a0 cc dd 50 3f 16 c4 6e bf f6 18 25 be 09 63 13 be
       0.81588435 -0.93267953 -0.16122803 -0.14393248
0000b0 21 7f d7 3c 45 55 9f 3f fd 76 93 be 14 96 15 3e
       0.026305737 1.2447897 -0.28801718 0.14608032
0000c0 ae 2b 15 3e d0 c7 91 3e 54 3f 03 be 74 a8 83 be
       0.14567444 0.28472757 -0.12817127 -0.25714457
0000d0 07 4c 26 3e 13 2b 96 bd 59 fa b8 3e 72 78 24 3e
       0.1623994 -0.073324345 0.361285 0.16061571
0000e0 fd 3b 58 3c bc a5 66 3d 5e 3f 1f 3e 1c 49 8d 3e
       0.013197896 0.0563104 0.15551516 0.2759484
0000f0 7e e0 04 3f 66 e8 93 3d af b4 95 3d 6a 20 d3 be
       0.5190505 0.07222061 0.07309853 -0.41235667
000100 7f 50 73 be 8d 72 76 3d 32 46 c3 be cd b2 82 3c
       -0.23761176 0.060167838 -0.38139492 0.0159544
000110 38 7b 32 3f e0 8c f9 3e 54 74 71 3e d6 f5 fa 3e
       0.69719267 0.48740292 0.23579532 0.49015683
000120 0c d4 98 3c 84 4d 90 3e 56 49 62 3e 86 23 0c 3f
       0.0186558 0.2818414 0.22098288 0.54741704
000130 41 d4 71 3d 71 8e 67 3e 16 85 21 be 4c 66 8c 3c
       0.05904031 0.22612931 -0.15773425 0.017138623
000140 94 97 5f 3d 32 0c b0 3d c3 09 96 3d 83 ad 04 be
       0.054587916 0.08596076 0.07326081 -0.12956814
000150 01 85 12 bf 16 0a 09 bd 99 15 7f 3e 23 21 1e 3d
       -0.572342 -0.033456884 0.24910583 0.03860582
000160 09 5d e1 be 62 a7 c8 be b8 94 c8 be 4d 41 09 bf
       -0.44016293 -0.39190203 -0.39175963 -0.53615266
000170 e8 59 d1 be e1 f4 3d 3e ef 93 d6 3e a4 24 05 3d
       -0.40888906 0.18550445 0.4190974 0.032505646
000180 4a d0 57 be c6 2e a2 3e 20 24 0b bd de ad 7b 3e
       -0.2107555 0.3167631 -0.03397 0.24578044
000190 b8 05 45 3e 83 6b f1 3e d4 7a 17 bf 01 f9 b7 3e
       0.19240463 0.47152337 -0.59171796 0.35932162
0001a0 ce 44 3f 3e b1 88 51 be c6 a6 78 be 39 82 2e 3e
       0.1867859 -0.204623 -0.24282369 0.17041864
0001b0 3f 7b be bd ab b3 d9 3e c3 25 15 3e af 1f 53 be
       -0.09300851 0.42519888 0.14565186 -0.20617555
0001c0 f7 ba 83 be 77 ce be 3e e9 0f 71 be 19 e7 c9 3e
       -0.2572858 0.37266895 -0.23541225 0.39434126
0001d0 57 a1 ff 3d 6d ba a5 be ef a0 00 3f f3 72 6f be
       0.12481945 -0.32368794 0.50245565 -0.23383693
0001e0 6f 5c 93 3e 83 c2 73 bc e1 ec f0 be 87 0b bd 3e
       0.2878146 -0.014877918 -0.47055724 0.36922857
0001f0 3a 64 4f 3e cd 0d 9d bd 56 3b 01 3e 5a 8c 41 be
       0.20253077 -0.07668648 0.12620291 -0.18901196
000200 57 15 28 be fe c9 36 3b 90 20 bd be 5a a4 9d 3e
       -0.1641439 0.0027891393 -0.36938906 0.30789453
000210 38 b6 f7 bc a3 b2 04 bf 51 a5 6b 3e 80 e9 1b bf
       -0.030238256 -0.5183508 0.23012282 -0.6090317
000220 69 c8 c1 3b 7d 7c 92 3d dc 9b e9 3c 7a 6f b7 bd
       0.0059137833 0.071526505 0.028516702 -0.08956809
000230 c1 1a 21 3e ea f5 0a 3e 57 c5 f2 3b f8 cc 6a be
       0.15732862 0.13570371 0.0074087786 -0.22929752
000240 b5 23 68 3e c0 2d 81 be 8a 01 ae 3d 3b 0b 96 bd
       0.22669871 -0.25230217 0.08496387 -0.07326361
000250 11 25 55 3d 33 70 ea be e6 34 02 bf a0 6a c6 3e
       0.052037302 -0.45788726 -0.50861967 0.38753223
000260 b2 35 8a 3e f2 f8 0e be 59 7d 3c bd 4b 00 8c be
       0.2699409 -0.13962153 -0.04601798 -0.27343974
000270 32 93 14 3e da a8 25 be 76 a3 f4 3b 0c 5c e5 be
       0.14509276 -0.16177693 0.007465775 -0.4479679
000280 e0 76 8f 3c 1e 6a a2 3e bb d5 16 be 17 47 20 3f
       0.017512739 0.31721586 -0.14729969 0.62608474
000290 e7 cc 17 bf 3c ce 32 be 8d 71 48 bd 14 9f 5d bd
       -0.5929703 -0.17461485 -0.048936415 -0.054106787
0002a0 72 17 a0 3e b0 82 82 bd bb b7 a8 bc 38 5d c3 be
       0.31267887 -0.06372583 -0.020595422 -0.38157058
0002b0 be 22 a0 3e b4 b3 04 3e 0d 93 d8 3e 43 0a b4 bd
       0.31276506 0.12959176 0.4229969 -0.0879102
0002c0 26 39 e7 bd 95 d3 2f be c5 dd 82 be 51 12 07 3f
       -0.11290197 -0.17170556 -0.25559822 0.52762324
0002d0 79 a4 af 3e ef 74 b0 3d 70 66 ab 3c b2 cb 23 bf
       0.3430517 0.08616053 0.02092287 -0.6398269
0002e0 7c 84 01 3d cf 34 4e be 95 34 d4 be 92 1d 88 bd
       0.031620488 -0.20137332 -0.41446367 -0.06646265
0002f0 a9 b6 57 3e 37 11 a6 3e dc 08 8d be 65 6e 8c 3e
       0.21065773 0.3243501 -0.27545822 0.27427974
000300 34 16 d0 bc 47 60 5f 3e 0f a2 2a 3e 3f b9 db 3e
       -0.025401212 0.2181407 0.16663383 0.4291477
000310 80 e1 b6 3d 98 97 bf 3e 45 cc b5 3d d6 31 a5 be
       0.089297295 0.37420344 0.08876852 -0.32264584
000320 50 c1 85 3e ba 73 0d 3d b0 ef 5a be 50 c1 17 3f
       0.26124048 0.034534194 -0.21380496 0.59279346
000330 6b 3e b6 3d 5d c1 93 3e 53 22 a8 bd 98 c3 87 be
       0.08898624 0.28858462 -0.08209672 -0.26516414
000340 26 fe 49 be 96 1f da 3e fa 31 d5 3d 24 09 a7 3d
       -0.19725856 0.42602223 0.10409923 0.0815604
000350 34 09 36 be f7 0b 2e be d4 dc e6 3b 19 7b 2d 3e
       -0.17776948 -0.16996752 0.0070453677 0.1694149
000360 96 15 bd 3c 11 7b fc bc a1 9c c8 3d 5f 1e 84 bd
       0.023081582 -0.030820401 0.097954996 -0.06451105
000370 1f 7f 58 be a6 42 1c 3e fb dc 27 be 79 c0 88 be
       -0.21142243 0.152598 -0.16392891 -0.26709345
000380 19 59 a1 3d 12 7a 9f be 2b 4a fd bd b2 83 b0 bd
       0.07878322 -0.3114782 -0.12367662 -0.08618869
000390 fa 92 fc be ad 81 ef 3d 0c 5d dc be 20 48 06 3e
       -0.49330884 0.116946556 -0.4303974 0.13113451
0003a0 f5 a6 5f be 82 d9 04 bd 28 1e 68 3d 0d 0b 0c 3c
       -0.21841033 -0.032433994 0.056669384 0.008547557
0003b0 15 f7 0b be 45 6f 85 3e 7a af 88 bd 8a 5e 6f 3e
       -0.13668473 0.26061454 -0.066740945 0.23375908
0003c0 57 be 66 be cd b0 71 3d 1d 3c bd bd 1b 9a 22 3e
       -0.22533546 0.0590065 -0.09239981 0.15879099
0003d0 49 6b 9b be 71 7d bd 3c 9a 51 9e 3d 9b 68 04 3e
       -0.3035529 0.023131104 0.07730408 0.12930529
0003e0 a6 12 12 be b6 fa e7 3d 71 db 60 be 2b 6b 1e be
       -0.14264926 0.11327116 -0.2195871 -0.15470569
0003f0 1c a7 00 3f 0b b2 9d bd 95 d2 52 be 9b 26 33 bf
       0.5025499 -0.076999746 -0.20588143 -0.6998078

network_body._body_endoder.seq_layers.2.bias f4 [128]
000000 56 90 73 be 0c de 8e be bf 09 12 bf ad b6 6a bf
       -0.23785529 -0.27903783 -0.5704612 -0.9168499
000010 4d 5f 8d be 86 1a 7e be 69 67 33 bf 2e 28 5c be
       -0.2761177 -0.24814805 -0.70079666 -0.21499702
000020 90 19 e2 be 85 c2 f3 be 2b 5a de be d3 1e 13 bf
       -0.44160128 -0.47609344 -0.43428168 -0.5746891
000030 6f 16 8f be 56 cc 2a bf c4 29 21 bf 4d 9d 35 3e
       -0.27946803 -0.6671804 -0.62954354 0.17735787
000040 da a1 93 be 91 e9 0c bf 8e d0 bf 3d d8 8a 06 bd
       -0.2883442 -0.55043894 0.093659505 -0.032847255
000050 f0 2c 27 be a3 df 93 be d7 a3 62 be 07 e7 a5 3e
       -0.16325736 -0.2888156 -0.22132812 0.32402822
000060 dc 15 77 3d 1c 35 d4 be 64 2f 04 bf 5f d9 6a 3e
       0.06032358 -0.4144677 -0.5163481 0.22934483
000070 12 4c 08 bf bd 34 dd be c4 ac a0 3c 1d d8 0d bf
       -0.53241074 -0.432043 0.019613631 -0.5540789
000080 89 af ed 3d bf cd c1 bc c3 ce 11 bf 80 1a 2a 3f
       0.11605746 -0.023657678 -0.5695612 0.66446686
000090 b3 2c 92 3d 86 11 d7 be 5f 25 bb bd fe cb 30 bf
       0.07137432 -0.42005557 -0.09137987 -0.6906127
0000a0 55 44 22 bf eb 3e 5b bf f8 a7 e1 be 0e bb 05 3f
       -0.63385516 -0.8564288 -0.44073462 0.5223855
0000b0 12 33 7a bf d2 be 5b 3c 27 5c bf be a8 39 81 be
       -0.9773418 0.013412194 -0.37374994 -0.252393
0000c0 f1 72 cd be 69 71 fa be 41 00 fc be b9 7f 6b bf
       -0.40126756 -0.4891465 -0.49218944 -0.91991764
0000d0 1f fa 67 be e1 68 30 bf 10 08 14 bf f1 a5 cf be
       -0.22654007 -0.6891003 -0.578248 -0.4055629
0000e0 e5 ab 11 bf 05 f9 11 bf a6 52 0e bf cb e8 0a bf
       -0.56902915 -0.570206 -0.5559486 -0.54261464
0000f0 83 15 8c be 58 33 0a bf 4d a3 de bd 13 c3 dd be
       -0.27360162 -0.53984594 -0.10870991 -0.43312892
000100 90 f8 01 bf bc b2 13 bd 80 d4 f1 be 04 a7 ce be
       -0.507699 -0.036059126 -0.47232437 -0.40361798
000110 9e fa 01 be 91 c4 a1 be d9 38 df be 04 ab 3f bf
       -0.12693259 -0.3159528 -0.4359806 -0.74870324
000120 1a 02 20 bf d5 cc 94 be cc 07 93 bd f5 a4 1e bf
       -0.62503207 -0.29062524 -0.071792215 -0.61970454
000130 e7 9b 29 be f9 30 2f bf b6 cf 9f be 01 5c b6 be
       -0.16563378 -0.684341 -0.31213158 -0.35617068
000140 72 f7 6d be cc cf cc bd ea d8 38 3e ae e0 c1 be
       -0.23238924 -0.100005716 0.18051496 -0.3786673
000150 02 ad 98 bd fd 7c f0 be aa c0 1e be 24 46 c4 be
       -0.074548736 -0.46970358 -0.15503183 -0.38334763
000160 ae ee 2c bf 48 f6 23 bf 69 e1 b6 be 8c 77 2f bd
       -0.67551696 -0.6404767 -0.3571885 -0.04283862
000170 8a e9 e3 bd ef ba 4e be e5 aa 0f 3e e3 70 09 be
       -0.111285284 -0.20188497 0.14030035 -0.13421969
000180 df 59 95 be 16 7c 9c 3e 20 c8 13 bf 18 04 a4 be
       -0.2917013 0.3056342 -0.5772724 -0.32034373
000190 86 26 0c bf eb ef 8a be 72 92 1f bf 26 c5 f2 bd
       -0.5474628 -0.27136168 -0.6233283 -0.11854009
0001a0 15 81 89 be d7 3b 9e be 18 1f 02 bf c1 a7 a9 be
       -0.26856294 -0.3090503 -0.50828695 -0.331358
0001b0 1f cb f7 3d 47 56 28 bf 3b b5 cc be 8d 8d 29 bf
       0.12099289 -0.6575665 -0.39982018 -0.66231614
0001c0 fe 52 29 3c a0 06 0d be a5 1a 25 3d 37 c2 c9 be
       0.010334728 -0.13772058 0.040308613 -0.39405987
0001d0 8f 70 1e be 53 a6 66 bf ac d8 e1 be 2b 7f a6 be
       -0.15472625 -0.9009754 -0.4411062 -0.32518896
0001e0 5b d4 ea be 9c 64 40 be ea de c8 be c2 97 9d 3e
       -0.4586514 -0.1878838 -0.3923257 0.30779845
0001f0 05 e4 9b be 22 49 c7 be ad 5b a2 be 29 cd 22 be
       -0.30447403 -0.38922983 -0.31710568 -0.15898575

network_body._body_endoder.seq_layers.2.weight f4 [128, 128]
000000 7d c0 37 bd f4 d8 a3 bb 73 b2 4b 3c e3 79 aa be
       -0.044861306 -0.005000228 0.012432682 -0.33296117
000010 6d 14 9b 3e 5b e0 c3 3d e6 d5 9b 3e e1 2d e2 be
       0.3028902 0.09564277 0.3043663 -0.44175628
000020 97 89 7f 3e 22 45 14 bf 5c 96 45 3e 80 47 a5 be
       0.2495483 -0.5791799 0.19295639 -0.32281113
000030 c5 3b 88 3e a0 06 8b 3e d9 04 a4 bd 79 a4 35 bd
       0.266081 0.27153492 -0.08008737 -0.044346306
000040 a2 d0 d0 be a9 3f 9f bf 49 cb 1a bf 8e 27 bb 3e
       -0.40784174 -1.2441303 -0.6046644 0.36553615
000050 b2 d8 72 bf 08 2f 38 3e 1d 1c 1d bd f5 31 6b be
       -0.948619 0.17986691 -0.03835689 -0.22968276
000060 8e 29 8a bb 49 34 b2 bd 7d fd 8b bd 0d 82 94 be
       -0.0042163795 -0.08701379 -0.068354584 -0.2900547
000070 fc 3c 2e 3e 48 7a b0 3e 81 c0 2f 3e 0e ca df be
       0.17015451 0.34468293 0.17163278 -0.43708843
000080 af 63 f4 3e 70 39 ad be e5 cc 3a be e6 c0 29 bf
       0.47732303 -0.33832884 -0.18242224 -0.66309965
000090 61 02 6c 3e 73 16 70 3e 70 c1 27 bf d1 b0 2e be
       0.23047782 0.23446064 -0.6552954 -0.17059638
0000a0 79 e4 3a 3e d8 89 06 bf a7 12 ba 3e 93 84 79 3e
       0.18251218 -0.5255408 0.36342356 0.2436698
0000b0 f5 53 55 bf d1 4a c5 be cd a7 b5 3b 4d 23 bc be
       -0.83331233 -0.38533643 0.005543685 -0.36745682
0000c0 b3 a6 32 bf b1 ad 50 3e 0c 04 e9 be ed 53 a7 be
       -0.6978561 0.20378758 -0.455109 -0.32681218
0000d0 06 39 c9 be 53 a2 ff 3d 7a 02 46 3e fb ac 20 be
       -0.39301318 0.12482133 0.19336882 -0.15690987
0000e0 10 aa 86 3e 20 3d eb be aa 2d 37 bf 79 4d b7 be
       0.26301622 -0.45945072 -0.7155405 -0.35801294
0000f0 cf 10 a3 bf 1d dc 7e be 09 39 0d be 17 5f 0e bf
       -1.2739505 -0.24888654 -0.13791288 -0.55613846
000100 3f 0c a2 be a9 a4 e6 3e 5d 80 09 bf 18 96 94 3e
       -0.31649968 0.450475 -0.5371149 0.29020762
000110 cd 32 0c 3e 08 ce 21 bf 2e 49 c8 bd ad 86 f4 3d
       0.13691254 -0.63205004 -0.09779583 0.1193975
000120 51 4b 31 3d 3e 8c e1 be 54 3d 51 bd d6 71 98 3d
       0.043284718 -0.4405231 -0.051083878 0.074435875
000130 8c 39 7d be e4 ea ac bd 60 e7 52 be 1d 41 c2 3e
       -0.24728984 -0.08443239 -0.20596075 0.37940302
000140 2e 91 66 be a5 06 02 bf 92 24 d1 bd de 55 d5 ba
       -0.22516319 -0.5079139 -0.10212053 -0.0016276201
000150 61 55 3a be 6c 53 18 3d 29 03 f4 be 2f ec 77 3e
       -0.18196632 0.037188932 -0.4765866 0.2421119
000160 32 3d 3b be 29 63 77 be c7 d9 a2 3c b0 a0 fa 3d
       -0.18285063 -0.2415892 0.019879235 0.1223768
000170 19 36 1c bf 42 03 13 be b2 74 cc 3d 7e 12 31 bf
       -0.61020046 -0.14356712 0.09983195 -0.6916884
000180 b7 f0 ab 3d 06 5f 5c bf 34 fb 82 3d 7a 15 3c be
       0.08395522 -0.86082494 0.063955694 -0.18367568
000190 7d 80 ee 3d 37 92 13 be 99 8c 7c bd 9c f4 cd be
       0.11645601 -0.14411245 -0.061657522 -0.40225685
0001a0 b0 60 52 bf 94 85 73 be a1 78 b8 3d 60 4c 61 be
       -0.82178783 -0.23781425 0.09007383 -0.22001791
0001b0 3f 71 35 bf e0 10 13 bf 21 21 30 bd 7d 1b 89 3e
       -0.70875925 -0.57447624 -0.043000344 0.26778784
0001c0 e6 73 0c bd ce 50 d0 be 32 1b 8d 3d a4 13 9a be
       -0.034290217 -0.4068665 0.06889953 -0.3009311
0001d0 f6 c1 a1 3c 59 4d 99 be 4b 97 ca be 9a 8b b3 bd
       0.019745808 -0.29941824 -0.39568552 -0.08766861
0001e0 de 45 28 be 91 97 f3 bb 0b e0 1a be e8 6e c7 3c
       -0.16432902 -0.0074338396 -0.15124528 0.024344876
0001f0 01 99 ca 3e 48 4e 2a bd 19 19 d6 ba 00 51 11 3b
       0.39569858 -0.04157856 -0.0016334384 0.0022173524
000200 3b a0 15 be 93 0b 80 be 61 57 af be 74 48 28 3c
       -0.14611904 -0.2500883 -0.34246352 0.01027118
000210 5c 87 ed be 1d 15 c5 be cf 3b f2 be e2 24 9a 3e
       -0.46392334 -0.3849267 -0.47311255 0.30106264
000220 55 2e 08 bd 4e cf 0b bf 71 fc b6 3e 26 e7 11 bf
       -0.03324731 -0.54613197 0.35739473 -0.5699333
000230 25 ec 7d be 10 c9 d6 3d df ae 2d bf 46 84 52 3e
       -0.24797113 0.104875684 -0.6784496 0.20558271
000240 b2 46 5c 3e 4e 64 19 bf d8 a8 0a 3f 23 c5 be 3e
       0.21511343 -0.5991868 0.54163885 0.37259778
000250 1b b1 86 3e 09 b1 2b 3d 47 70 52 be 26 04 0a 3f
       0.26306996 0.04191688 -0.20550643 0.5391258
000260 18 fe 86 3d c7 a9 93 be 98 a7 dd bd f8 e2 ae be
       0.06591433 -0.28840467 -0.108229816 -0.34157538
000270 7d 39 b8 3d ca 54 43 3f 0e 61 a7 3d 6c 74 af be
       0.0899534 0.7630125 0.081728086 -0.3426851
000280 0a 11 35 3d fc 92 24 bf 04 14 ca bd ad e9 dc bd
       0.044205703 -0.6428678 -0.09867099 -0.107867576
000290 aa 92 0b bf 61 22 a6 be 54 13 dd 3e c8 1a a2 3e
       -0.54520667 -0.32448104 0.4317881 0.31661057
0002a0 a5 e6 c1 3e 79 98 8e 3e e7 c0 b7 bd 52 f9 bd 3d
       0.3787128 0.27850702 -0.0897234 0.0927607
0002b0 49 30 68 bf 8c a2 c5 bd 7e 87 c2 bd ac b0 bc 3e
       -0.9069868 -0.09650144 -0.09498499 0.3685354
0002c0 c7 48 32 3f 54 ef 72 be a0 9e ea be a2 b1 17 bf
       0.696423 -0.23724109 -0.45824146 -0.5925542
0002d0 8f 98 23 3d 33 20 da be 1a a1 48 be eb 02 ba bd
       0.039940413 -0.4260269 -0.19592705 -0.09082588
0002e0 54 24 3b 3e a8 e8 84 be 65 3d 00 bf f1 df 12 bf
       0.18275577 -0.25958753 -0.5009368 -0.5737296
0002f0 54 a6 b3 3c 70 aa d9 3d 53 78 fc be 12 35 23 be
       0.021929897 0.106282115 -0.4931055 -0.15938213
000300 26 a2 f4 be a9 ca 27 3e e1 72 82 bf eb b6 20 bd
       -0.4777996 0.16385902 -1.0191308 -0.039236944
000310 72 6c d9 bd 89 d8 37 bf ff 76 9e bd 00 c0 8c 3e
       -0.106163874 -0.7181478 -0.077375405 0.27490234
000320 59 09 3d be 71 01 a8 3e 75 32 2c be 3d ea 02 bf
       -0.18460597 0.328136 -0.16816123 -0.5113867
000330 9d 9d fa bd 3f fd 78 be d2 4e 2f bd 21 2d 4c 3e
       -0.122370936 -0.24315356 -0.04279978 0.1993909
000340 da fe 21 bc 26 f4 13 be 10 b6 6d bf e6 94 f5 be
       -0.0098874215 -0.14448604 -0.9285593 -0.47965163
000350 44 30 a4 3e ca e7 ca bc 86 7c 83 bf 74 7c 4f 3e
       0.32068074 -0.024768729 -1.0272377 0.20262319
000360 b7 64 83 be d8 20 ea 3e 5b d9 88 bd 9a b7 50 bf
       -0.25662777 0.45728183 -0.06682082 -0.81530154
000370 76 d2 9a be 08 1a fb bd 01 d4 bc 3e ff 85 e7 bd
       -0.30238694 -0.122608244 0.36880496 -0.113048546
000380 e3 00 d3 3e 22 af de bd 59 ed 21 3f 22 2f 0e be
       0.41211614 -0.10873248 0.6325279 -0.13885167
000390 4c 53 30 be 6d 08 a1 3c 45 75 66 be da ee ba be
       -0.17219275 0.019657338 -0.22505672 -0.36510354
0003a0 49 df 5b be fd af 63 3d 9d 3f 1c bc 7f 2a e2 3e
       -0.21471895 0.055587757 -0.009536651 0.44173047
0003b0 43 9c a7 be fa 53 0c bd d9 fd b3 3d 2e ab ff bd
       -0.32736406 -0.034259774 0.08788652 -0.12483822
0003c0 32 75 a2 3b df 99 54 be fa b7 4f be 52 2e 2d be
       0.0049578184 -0.20761822 -0.20285025 -0.16912201
0003d0 25 83 97 be 0a ee 63 be 5f c6 2c bf d8 36 41 bf
       -0.29592243 -0.22258773 -0.6749019 -0.7547431
0003e0 b9 8a 82 be e6 68 c1 3e 53 26 d1 bd fe a4 22 3e
       -0.25496462 0.37775344 -0.10212388 0.15883252
0003f0 4e c0 85 3e a1 f4 39 3e 02 da 85 3e 08 be 60 bd
       0.2612328 0.18159725 0.2614289 -0.054868728

network_body.observation_encoder.processors.0.normalizer.running_mean f4 [21]
000000 74 65 7a 3f d0 4c b3 3c eb 54 9a 3e 5e 51 7a 3f
       0.97811055 0.021887213 0.30142912 0.97780406
000010 df c9 b5 3c 1b 4d 9b 3e eb a4 7a 3f f5 5d ab 3c
       0.022190986 0.30332264 0.97907895 0.020918826
000020 cf 0f 99 3e 54 50 7a 3f 80 ed b5 3c 39 7a 9a 3e
       0.29894873 0.9777882 0.022207975 0.30171373
000030 69 7f 7a 3f 9e 07 b0 3c df 99 9a 3e be a0 7a 3f
       0.9785066 0.021488007 0.3019552 0.97901523
000040 28 e0 ab 3c 12 69 99 3e aa 7d 7a 3f 8b 3b b0 3c
       0.02098091 0.29962975 0.97848 0.021512767
000050 74 e8 9a 3e
       0.30255473

network_body.observation_encoder.processors.1.normalizer.running_mean f4 [25]
000000 d9 02 7a bf b1 55 40 3b 05 16 30 bf 57 4e 98 b7
       -0.97660595 0.002934795 -0.687836 -1.8156292e-05
000010 d8 d3 bd 37 c9 37 7a bf 66 fe 00 ba ef 4f 30 bf
       2.2629203e-05 -0.9774137 -0.0004920721 -0.6887197
000020 47 e6 ac b7 ae c7 ec 37 d2 6c 7a bf 0c db 87 bb
       -2.0611229e-05 2.8226375e-05 -0.97822297 -0.0041459855
000030 98 89 30 bf 5a 43 cc b7 01 be 12 38 5f a2 7a bf
       -0.6895995 -2.4350058e-05 3.4986067e-05 -0.9790401
000040 5f a1 03 bc 75 c3 30 bf 7d 66 ef b7 ac 4e 32 38
       -0.008034079 -0.69048244 -2.8538745e-05 4.2511776e-05
000050 f9 d7 7a bf 9b 4e 47 bc 7d fd 30 bf 32 25 06 b8
       -0.979858 -0.012164737 -0.6913679 -3.198273e-05
000060 a2 fb 57 38
       5.1494346e-05
