UAV NS for Power Lines Monitoring/Assets/NN models/UAVSS-8999568.onnx (onnx, 96281 bytes, 10 tensors)

59 f4 [21]
0.15149103 0.15148675 0.17699046 0.15263206 0.15262473 0.1806825 0.14817694 0.14817096
0.173269 0.15266675 0.15266137 0.17866044 0.15020154 0.15019588 0.17850065 0.1483268
0.14832145 0.17396437 0.15033504 0.15032716 0.17903623
00000000: 7720 1b3e 581f 1b3e fd3c 353e 944b 1c3e
00000010: a849 1c3e d504 393e b2bb 173e 21ba 173e
00000020: 6e6d 313e ac54 1c3e 4353 1c3e c3f2 363e
00000030: 6fce 193e f3cc 193e e0c8 363e fbe2 173e
00000040: 94e1 173e b723 323e 6ef1 193e 5def 193e
00000050: 4655 373e

62 f4 [25]
2.9666872 1.2809268 2.8239675 0.03668907 0.049381886 2.9914966 1.2892885 2.8475044
0.037133675 0.050249603 3.0186443 1.2979726 2.8731558 0.037599903 0.051253308 3.048269
1.3070186 2.9010663 0.038091403 0.05244562 3.0805357 1.31647 2.9313447 0.038589623
0.053863306
00000000: 34de 3d40 69f5 a33f e2bb 3440 4747 163d
00000010: a944 4a3d ae74 3f40 6807 a53f 833d 3640
00000020: 7b19 183d 87d2 4d3d 7831 4140 f723 a63f
00000030: c9e1 3740 5b02 1a3d fdee 513d d716 4340
00000040: 634c a73f 12ab 3940 bb05 1c3d 38d1 563d
00000050: 7f27 4540 1782 a83f 279b 3b40 2710 1e3d
00000060: c59f 5c3d

action_model._discrete_distribution.branches.0.bias f4 [6]
0.15163696 0.01444146 -0.032825712 0.13051987 -0.28477913 0.12919341
00000000: b846 1b3e e09b 6c3c 4174 06bd 00a7 053e
00000010: 92ce 91be 474b 043e

action_model._discrete_distribution.branches.0.weight f4 [6, 128]
-0.525106 -0.12873662 0.30685544 -0.07293298 -0.5443111 0.33003268 0.16385424 -0.2476872
-0.024916641 -0.15337108 -0.007882755 0.036849175 0.0077506807 -0.20864205 -0.64265645 0.10832297
-0.646802 0.13892691 0.04352582 0.062606506 0.33228898 -0.15775542 -0.17281578 -0.0022350184
-0.10076187 0.6236354 -0.3291908 0.0870924 -0.025369495 0.32888862 0.2235009 -0.36242834
0.20997055 0.22898643 -0.28628638 0.26287735 0.15319306 0.35490558 0.17147954 -0.09408157
-0.10285499 0.015328114 0.11492739 0.1349966 0.042557478 0.07565969 -0.38892657 -0.066955015
0.16051783 -0.16300301 0.0612952 -0.0729411 0.21135719 -0.13496874 0.06704646 0.0058825025
0.20065759 -0.081442565 -0.15395674 0.08586392 0.10577021 0.06258174 -0.14930075 -0.15997681
0.017743418 -0.0230126 0.07846578 -0.5852684 -0.026884673 0.19313817 -0.35342366 -0.30677184
0.055868812 -0.14934036 0.20584996 -0.2729656 0.28247654 -0.54340357 -0.1200003 -0.027237961
0.16066451 -0.036340807 0.22594593 0.04662025 0.3151076 -0.16177398 0.31330425 -0.29519755
0.21914627 -0.079131044 0.23265296 -0.29363108 0.18792592 0.19334702 0.041103255 -0.10410208
-0.39740106 0.037525278 0.41354913 0.14677022 -0.5219628 0.051724907 0.14543876 0.29893562
0.067856416 0.054048143 0.08955287 -0.18441094 0.09748147 0.13595541 -0.22591053 0.13194159
0.18200445 0.2663271 0.082545064 -0.3775402 0.053505808 -0.12470453 -0.0005393062 0.27881676
0.18223156 -0.011048559 -0.14686945 0.014736132 -0.095605016 0.108556435 0.26349145 0.10921187
0.18880592 0.30157954 0.30401364 0.14644673 0.5729149 -0.05962148 -0.06777291 0.24281682
-0.12939517 0.5331214 0.24715964 -0.2764165 0.2869339 0.3218231 -0.11344664 0.31933984
-0.16210839 0.16840924 -0.068017356 -0.22690907 0.27151197 -0.09558625 0.5917277 0.15922494
0.21702403 0.535921 -0.10197171 0.06260646 0.029863665 0.14364102 0.05531584 0.44373587
-0.07037993 -0.015603155 -0.05167448 0.24074149 0.16177998 0.011223989 -0.083945155 0.4794522
-0.06671407 0.15198591 -0.1749885 -0.03753421 -0.2995341 0.57328314 -0.14402203 0.28068766
-0.15323988 -0.016602824 0.29683048 -0.25857487 0.44221112 0.2914528 0.4067241 0.1280924
0.15611826 0.1749903 0.33945924 0.2089092 0.19644685 0.24177836 0.34964705 0.09804291
0.28462029 0.026137333 0.09458452 0.47884995 0.49318686 -0.012929586 0.15007383 0.13090211
0.031010266 0.49174598 -0.17520753 0.28372458 0.1896277 0.56231457 0.2902067 0.13881172
0.24608074 -0.36401412 0.104106836 0.20797469 0.4787709 0.529722 0.18480837 0.24616784
0.009604128 0.017094217 0.318027 0.33716482 0.019715628 -0.31460682 0.026870662 0.37927645
0.17429252 0.12731217 0.31246015 0.17634033 0.3494661 0.12640236 0.09400082 -0.21525565
0.20047955 0.05793629 0.33536777 0.13318576 0.26786444 0.1276399 0.3435331 -0.16826311
-0.32423544 -0.018634943 0.20141226 -0.17727554 -0.00067303336 0.41462803 0.00985248 0.0933936
-0.14757779 0.20058168 0.33115238 0.13175471 0.15202 0.24950902 0.2987824 -0.14998493
00000000: 596d 06bf 88d3 03be 281c 9d3e e35d 95bd
00000010: f957 0bbf 0bfa a83e 68c9 273e b7a1 7dbe
00000020: fc1d ccbc 4f0d 1dbe ac26 01bc 29ef 163d
00000030: 6cf9 fd3b 43a6 55be 2285 24bf 6fd8 dd3d
00000040: d194 25bf db42 0e3e 2148 323d d737 803d
00000050: c821 aa3e a38a 21be 9ff6 30be 6379 12bb
00000060: 3d5c cebd 92a6 1f3f b28b a8be 805d b23d
00000070: b0d3 cfbc 1764 a83e 6cdd 643e 3590 b9be
00000080: 8502 573e 6b7b 6a3e 2194 92be dc97 863e
00000090: a4de 1c3e 2fb6 b53e 5598 2f3e d7ad c0bd
000000a0: a3a5 d2bd c522 7b3c 0d5f eb3d 8c3c 0a3e
000000b0: c050 2e3d 78f3 9a3d 6221 c7be b61f 89bd
000000c0: c95e 243e 43ea 26be ad10 7b3d 2562 95bd
000000d0: 056e 583e 3f35 0abe a84f 893d 02c2 c03b
000000e0: 2f79 4d3e 5ccb a6bd d6a6 1dbe 6cd9 af3d
000000f0: 0d9e d83d db2a 803d 4ce2 18be f6d0 23be
00000100: a55a 913c ec84 bcbc abb2 a03d 26d4 15bf
00000110: 3f3d dcbc 03c6 453e f2f3 b4be 3311 9dbe
00000120: b2d6 643d aeec 18be 55ca 523e 26c2 8bbe
00000130: c4a0 903e 7f1c 0bbf b8c2 f5bd 2522 dfbc
00000140: 3d85 243e 19da 14bd 5f5e 673e e0f4 3e3d
00000150: c955 a13e 14a8 25be 6a69 a03e 2224 97be
00000160: e167 603e 750f a2bd 943c 6e3e d056 96be
00000170: a76f 403e c3fc 453e e35b 283d 7933 d5bd
00000180: 2778 cbbe 1bb4 193d b6bc d33e ef4a 163e
00000190: 5b9f 05bf 7fdd 533d e6ed 143e 170e 993e
000001a0: 4ef8 8a3d 9661 5d3d 7f67 b73d 39d6 3cbe
000001b0: 5da4 c73d e537 0b3e 1755 67be b21b 073e
000001c0: 605f 3a3e 075c 883e 630d a93d f34c c1be
000001d0: e828 5b3d 1765 ffbd 3a60 0dba 12c1 8e3e
000001e0: e99a 3a3e 0405 35bc f264 16be d16f 713c
000001f0: 90cc c3bd d652 de3d 5ae8 863e 79aa df3d
00000200: 5756 413e a268 9a3e ada7 9b3e 22f6 153e
00000210: 8daa 123f a735 74bd 86cc 8abd f9a4 783e
00000220: 2b80 04be a57a 083f 6b17 7d3e 7786 8dbe
00000230: 00e9 923e ffc5 a43e b656 e8bd 8380 a33e
00000240: beff 25be 7973 2c3e af4c 8bbd da5a 68be
00000250: 9e03 8b3e b9c2 c3bd 777b 173f dd0b 233e
00000260: 8c3b 5e3e 1e32 093f 8bd6 d0bd d137 803d
00000270: a5a4 f43c a216 133e dd92 623d 5931 e33e
00000280: 5a23 90bd 60a4 7fbc 9fa8 53bd f084 763e
00000290: a7a9 253e d2e4 373c 70eb abbd c27a f53e
000002a0: 63a1 88bd 32a2 1b3e 2f30 33be 79bd 19bd
000002b0: 895c 99be afc2 123f 837a 13be 4bb6 8f3e
000002c0: eaea 1cbe a502 88bc 2afa 973e ed63 84be
000002d0: 7f69 e23e 4d39 953e 243e d03e a72a 033e
000002e0: 77dd 1f3e a830 333e 9acd ad3e 4bec 553e
000002f0: 5d29 493e bf94 773e f004 b33e b9ca c83d
00000300: c0b9 913e f61d d63c 87b5 c13d d22b f53e
00000310: fd82 fc3e 9dd6 53bc f4ac 193e 340b 063e
00000320: 3e09 fe3c 21c6 fb3e 9a69 33be 5944 913e
00000330: c42d 423e d9f3 0f3f f995 943e a924 0e3e
00000340: 97fc 7b3e 0f60 babe f735 d53d 51f7 543e
00000350: 7621 f53e dc9b 073f 683e 3d3e 6c13 7c3e
00000360: a25a 1d3c 2c09 8c3c 6fd4 a23e dea0 ac3e
00000370: ab82 a13c 2514 a1be dd1f dc3c 8630 c23e
00000380: bd79 323e 1f5e 023e c7fa 9f3e 8f92 343e
00000390: 38ed b23e 9f6f 013e 8083 c03d fa6b 5cbe
000003a0: 834a 4d3e 9a4e 6d3d 53b5 ab3e d961 083e
000003b0: 8725 893e 09b4 023e 92e3 af3e 2a4d 2cbe
000003c0: 3002 a6be 4fa8 98bc 043f 4e3e b887 35be
000003d0: 816e 30ba 204a d43e 4c6c 213c 2545 bf3d
000003e0: a21e 17be 4965 4d3e ce8c a93e b5ea 063e
000003f0: 22ab 1b3e 4b7f 7f3e 02fa 983e a695 19be

network_body._body_endoder.seq_layers.0.bias f4 [128]
-0.07557514 -0.46548048 -0.30282864 -0.49558517 -1.4020547 -1.1837661 -0.8851927 -0.5897568
-0.98572826 -1.3589535 -1.0742558 0.21915285 -0.03797471 -0.9153068 0.35247976 -1.0424801
-0.37654516 -0.2633323 -0.79914945 -0.9281903 0.43861288 -1.4425708 -0.4902442 -0.94831383
-0.42518842 0.096014746 -0.8701111 -0.59428036 -1.5481396 -0.5023243 -0.75860035 -0.081530154
-0.29353166 -0.7170414 -0.49625117 -0.088576116 0.046013262 -0.4920499 -0.35633683 -0.8778667
-0.74727345 -0.22536358 -1.18704 -0.42018446 0.53426534 -0.07298386 -0.19494788 0.110423855
-0.79350936 -0.7313043 0.061148793 -1.0801715 -1.2499098 -0.58024305 -1.5759628 -0.63924146
-0.29987442 -0.23336826 0.15121283 0.23652248 0.0926511 -0.67783666 -1.173856 -1.1953491
0.24309331 -0.2986912 -0.35971442 -0.91680896 -0.9877496 -0.07514048 -0.62722373 0.011875918
-0.39287558 0.34477618 -0.93897116 0.1516311 -0.715663 -0.7567555 -0.4383316 -0.3754185
-0.3381866 0.75756633 -0.6599321 -0.25665924 -0.18091185 -1.4120127 0.06491333 -0.42938367
-0.6689318 -0.6105355 -0.6449353 0.11141598 0.007595789 -0.088961564 -0.23880313 0.23268662
-0.6415874 0.18134142 -0.6817276 -0.5000432 -1.7681301 -0.09767109 -1.3406742 -0.094119035
-0.20510401 -1.4109381 -0.70926046 -0.66266054 -0.4001971 0.2190111 0.12030008 -1.2451125
-0.05562137 -0.120308906 -1.0044281 -0.16073537 0.4904801 -0.7193945 -1.093591 -0.80677706
-0.8829512 -0.51912487 -0.871327 -0.67013866 -0.3407791 -0.45305854 -1.0384095 0.42650652
00000000: 24c7 9abd 7553 eebe 5b0c 9bbe 57bd fdbe
00000010: 8776 b3bf a685 97bf fd9b 62bf 4dfa 16bf
00000020: b058 7cbf 30f2 adbf 3781 89bf 9b69 603e
00000030: 5f8b 1bbd 8c51 6abf 3a78 b43e fd6f 85bf
00000040: 87ca c0be 7ed3 86be 0f95 4cbf e19d 6dbf
00000050: de91 e03e 29a6 b8bf 4a01 fbbe b2c4 72bf
00000060: 4cb2 d9be 61a3 c43d 9abf 5ebf c222 18bf
00000070: 7029 c6bf 5398 00bf a233 42bf 48f9 a6bd
00000080: c849 96be 0690 37bf a214 febe 6567 b5bd
00000090: 6778 3c3d f7ed fbbe c871 b6be dfbb 60bf
000000a0: 504d 3fbf b6c5 66be edf0 97bf 6b22 d7be
000000b0: 9dc5 083f 9078 95bd 6ba0 47be e725 e23d
000000c0: 6e23 4bbf c236 3bbf 2877 7a3d 0f43 8abf
000000d0: 0bfd 9fbf cf8a 14bf 26b9 c9bf 54a5 23bf
000000e0: 2489 99be 17f8 6ebe 89d7 1a3e f332 723e
000000f0: dcbf bd3d b486 2dbf ea40 96bf 3301 99bf
00000100: 74ed 783e 0eee 98be 7d2c b8be feb3 6abf
00000110: 28dd 7cbf 41e3 99bd bc91 20bf 3693 423c
00000120: fd26 c9be 8186 b03e 6a60 70bf 2f45 1b3e
00000130: b135 37bf baba 41bf 006d e0be db36 c0be
00000140: cb26 adbe deef 413f 4ff1 28bf d768 83be
00000150: f540 39be d5bc b4bf 48f1 843d 2dd8 dbbe
00000160: 1d3f 2bbf 0e4c 1cbf 7b1a 25bf 102e e43d
00000170: 19e6 f83b 7b31 b6bd cf88 74be 6745 6e3e
00000180: 123f 24bf 91b1 393e b385 2ebf d502 00bf
00000190: 1652 e2bf c807 c8bd 369b abbf 7bc1 c0bd
000001a0: c906 52be 9f99 b4bf 1892 35bf 1fa4 29bf
000001b0: a2e6 ccbe 7244 603e e35f f63d d95f 9fbf
000001c0: 3cd3 63bd 8464 f6bd 1a91 80bf d097 24be
000001d0: 3520 fb3e 3d2a 38bf cafa 8bbf f188 4ebf
000001e0: 1709 62bf 5ee5 04bf 490f 5fbf 358e 2bbf
000001f0: 997a aebe 4af7 e7be 9aea 84bf 105f da3e

network_body._body_endoder.seq_layers.0.weight f4 [128, 46]
0.08011363 -0.13983457 0.15342772 -0.4105164 0.36894855 0.4903206 0.15330973 -0.058488056
-0.6949655 -0.41283473 0.40456423 0.5382292 0.308046 -0.4377343 -0.6322275 0.32208368
-0.19546814 -0.07213669 0.3236201 -0.29020888 -0.6381936 0.78281516 0.19710182 0.21833538
-0.00011791411 -0.26068562 0.23710361 0.07244017 -0.034866747 0.39496556 0.04162657 -0.35108346
0.08254456 0.22601199 0.083003774 0.54860795 -0.4554395 -0.032451376 0.07181342 -0.16267782
0.81027484 -0.9350801 -0.16772066 -0.13904391 0.027899278 1.239165 -0.28540614 0.14346631
0.12975374 0.3036558 -0.14672491 -0.26893786 0.15913418 -0.07005644 0.33998394 0.17060454
0.0032100924 0.047713507 0.1717027 0.26143354 0.49445584 0.090741284 0.054576993 -0.42422694
-0.24549212 0.06804877 -0.4021521 0.031023141 0.67434096 0.4696493 0.24671842 0.50944394
0.033289693 0.25927702 0.20399687 0.5576397 0.082435735 0.24026603 -0.17993122 0.0009061625
0.06311279 0.11059242 0.08683777 -0.15141723 -0.5878463 -0.023820177 0.27641544 0.051551145
-0.46161368 -0.40671125 -0.3850564 -0.50749296 -0.39641592 0.17303462 0.41698182 0.016036844
-0.1909611 0.32718304 -0.021489292 0.23329695 0.19012299 0.47783786 -0.59803027 0.37200725
0.19506371 -0.21293814 -0.24578264 0.18205445 -0.10464326 0.42829818 0.15047616 -0.21100877
-0.25455067 0.39118007 -0.23016478 0.3928797 0.13002111 -0.31736407 0.5211045 -0.22859637
0.28692803 -0.008375792 -0.46247885 0.38794684 0.20774697 -0.077002384 0.12923285 -0.17928667
-0.1454211 0.007986624 -0.36915594 0.30890775 -0.020978278 -0.49966657 0.2353021 -0.60826755
0.011793443 0.082562536 0.01861503 -0.07966522 0.15356866 0.12685126 0.015821813 -0.23035978
0.22993523 -0.25554034 0.07643945 -0.08199754 0.060772832 -0.45730743 -0.50557226 0.38439065
0.25947583 -0.14671656 -0.038918763 -0.27471533 0.14458278 -0.16127232 -0.0005305381 -0.4453808
0.01369843 0.30730107 -0.15144153 0.62982565 -0.59070945 -0.17832053 -0.0588108 -0.05880364
0.31948683 -0.06179412 -0.024208877 -0.39140746 0.30895203 0.13726972 0.4245971 -0.09141753
-0.12270913 -0.17442866 -0.24607538 0.5288901 0.3396741 0.07640039 0.019542068 -0.62945795
0.032235205 -0.20198962 -0.42185777 -0.066241995 0.20998618 0.32550797 -0.278036 0.2768574
-0.022312878 0.20126161 0.18351379 0.43640813 0.07838758 0.38526678 0.097318724 -0.3291939
0.26778862 0.047942653 -0.23662004 0.6156055 0.10763615 0.27481502 -0.0698933 -0.27379033
-0.18743607 0.4164978 0.08939643 0.09362511 -0.18637252 -0.15921703 0.0010286567 0.1538265
0.035042666 -0.03929539 0.11086052 -0.069568045 -0.22781955 0.1644096 -0.17216177 -0.25361782
0.07414923 -0.32862356 -0.111998536 -0.09409038 -0.47746015 0.113339014 -0.4203987 0.12113781
-0.2181141 -0.033087514 0.05700707 0.011999819 -0.12561369 0.24954712 -0.067843445 0.23992072
-0.23149545 0.063867934 -0.08795842 0.15517971 -0.3068551 0.027055811 0.07337869 0.13382173
-0.12799439 0.09861421 -0.22467442 -0.14217073 0.5031093 -0.09136666 -0.21366727 -0.69159806
00000000: 9d12 a43d cb30 0fbe 281c 1d3e 352f d2be
00000010: d3e6 bc3e 4d0b fb3e 3afd 1c3e 2c91 6fbd
00000020: 42e9 31bf 135f d3be 0b23 cf3e 64c9 093f
00000030: 35b8 9d3e b61e e0be a9d9 21bf 27e8 a43e
00000040: cd28 48be 67bc 93bd 89b1 a53e 4296 94be
00000050: a860 23bf 9366 483f 0fd5 493e 4f93 5f3e
00000060: a848 f7b8 9678 85be 4acb 723e 835b 943d
00000070: 6fd0 0ebd ed38 ca3e 9f80 2a3d 36c1 b3be
00000080: 1f0d a93d b06f 673e e2fd a93d 9271 0c3f
00000090: 5e2f e9be bceb 04bd ea12 933d 0495 26be
000000a0: 2c6e 4f3f 6961 6fbf f7be 2bbe 8761 0ebe
000000b0: 078d e43c f59c 9e3f c120 92be d5e8 123e
000000c0: 2ade 043e c678 9b3e 0e3f 16be 39b2 89be
000000d0: 12f4 223e c079 8fbd 6012 ae3e f5b2 2e3e
000000e0: 6a60 523b 3d6f 433d d5d2 2f3e 9eda 853e
000000f0: 5129 fd3e 91d6 b93d 208c 5f3d 4634 d9be
00000100: 4962 7bbe 275d 8b3d e1e6 cdbe 3e24 fe3c
00000110: 9ca1 2c3f e075 f03e c1a3 7c3e eb6a 023f
00000120: c65a 083d f5bf 843e 8ee4 503e 7ac1 0e3f
00000130: 11d4 a83d 4c08 763e e43f 38be 898b 6d3a
00000140: 4741 813d 477e e23d 00d8 b13d 1e0d 1bbe
00000150: 187d 16bf 8822 c3bc 5386 8d3e 4b27 533d
00000160: a158 ecbe 753c d0be 1d26 c5be 0feb 01bf
00000170: 07f7 cabe fd2f 313e a47e d53e b35f 833c
00000180: 4e8b 43be 8984 a73e 500a b0bc 65e5 6e3e
00000190: 9aaf 423e 2aa7 f43e 8318 19bf bc77 be3e
000001a0: c8be 473e 750c 5abe 72ae 7bbe 7b6c 3a3e
000001b0: 354f d6bd e649 db3e 6c16 1a3e af12 58be
000001c0: 7754 82be c148 c83e 51b0 6bbe 8727 c93e
000001d0: 4124 053e 8b7d a2be 1b67 053f 2b15 6abe
000001e0: 3be8 923e 9e3a 09bc 07ca ecbe f8a0 c63e
000001f0: 9fbb 543e 6db3 9dbd 9e55 043e ed96 37be
00000200: 45e9 14be 54da 023c 0202 bdbe 2829 9e3e
00000210: a3da abbc 4cd4 ffbe 09f3 703e 6cb7 1bbf
00000220: 4939 413c 8c16 a93d 8c7e 983c 8527 a3bd
00000230: 1a41 1d3e 4ce5 013e bf9c 813c 6fe3 6bbe
00000240: 2474 6b3e 2fd6 82be 498c 9c3d 54ee a7bd
00000250: efec 783d 3324 eabe 2f6d 01bf dace c43e
00000260: 04da 843e de3c 16be 4869 1fbd 7da7 8cbe
00000270: 820d 143e 9224 25be cf13 0bba f408 e4be
00000280: 616f 603c 9156 9d3e 7d13 1bbe 413c 213f
00000290: bc38 17bf a899 36be 98e3 70bd 16dc 70bd
000002a0: c793 a33e d51b 7dbd b251 c6bc 8f66 c8be
000002b0: f62e 9e3e 6f90 0c3e cb64 d93e 1d39 bbbd
000002c0: ed4e fbbd 6d9d 32be 2ffb 7bbe 5765 073f
000002d0: c3e9 ad3e cf77 9c3d b016 a03c 2824 21bf
000002e0: 1009 043d 5ed6 4ebe befd d7be e2a9 87bd
000002f0: 9e06 573e fba8 a63e bc5a 8ebe 41c0 8d3e
00000300: 7fc9 b6bc 8617 4e3e 0aeb 3b3e e370 df3e
00000310: ab89 a03d b041 c53e 0a4f c73d 1a8c a8be
00000320: 971b 893e 845f 443d 864c 72be 5298 1d3f
00000330: 5870 dc3d 8eb4 8c3e 3824 8fbd 3f2e 8cbe
00000340: 3eef 3fbe 333f d53e 7a15 b73d 86be bf3d
00000350: 70d8 3ebe ca09 23be fed3 863a b284 1d3e
00000360: e688 0f3d 34f4 20bd d70a e33d b179 8ebd
00000370: 8749 69be fd5a 283e 2d4b 30be 32da 81be
00000380: 8ddb 973d 5941 a8be 7d5f e5bd 75b2 c0bd
00000390: a875 f4be 491e e83d 803e d7be 1a17 f83d
000003a0: 4d59 5fbe c686 07bd 3f80 693d e49a 443c
000003b0: e0a0 00be 4889 7f3e 81f1 8abd c7ad 753e
000003c0: 250d 6dbe 31cd 823d 8b23 b4bd 6ee7 1e3e
000003d0: 1d1c 9dbe 26a4 dd3c 9147 963d 9008 093e
000003e0: f610 03be 3ff6 c93d 0d11 66be 3495 11be
000003f0: c5cb 003f 721e bbbd 98cb 5abe 920c 31bf

network_body._body_endoder.seq_layers.2.bias f4 [128]
-0.23256047 -0.26471576 -0.5700581 -0.91342056 -0.27129444 -0.24544124 -0.7209813 -0.19493148
-0.4318102 -0.4675622 -0.41725585 -0.57237893 -0.28894114 -0.6726833 -0.6340636 0.17612922
-0.2990076 -0.57906765 0.09231689 -0.030682722 -0.15623413 -0.29257736 -0.22034393 0.30843198
0.040449597 -0.41410634 -0.515639 0.22912176 -0.53279907 -0.42724785 0.018211313 -0.5276029
0.103121534 -0.026567752 -0.57523495 0.65627956 0.10573864 -0.41746613 -0.07059747 -0.6984784
-0.6095682 -0.841917 -0.42929778 0.5078376 -0.9697638 0.009426669 -0.39605626 -0.2625813
-0.4175898 -0.50974566 -0.49107522 -0.9085851 -0.23960087 -0.67572683 -0.55721843 -0.41310307
-0.5834339 -0.57804483 -0.57217187 -0.5374961 -0.2867072 -0.5570607 -0.14303733 -0.4405503
-0.5482491 -0.03440354 -0.46679494 -0.4203414 -0.12774539 -0.33035776 -0.44991058 -0.73926765
-0.63836473 -0.299646 -0.086504735 -0.6194936 -0.16130921 -0.6644047 -0.29714787 -0.36919585
-0.2328863 -0.10953225 0.16241588 -0.36321175 -0.09398214 -0.46172822 -0.18438701 -0.386584
-0.6691934 -0.63520783 -0.33863097 -0.049583793 -0.11297087 -0.20547071 0.13183904 -0.13514556
-0.28631124 0.29734796 -0.5771538 -0.30753705 -0.54593337 -0.25851217 -0.64605826 -0.12173735
-0.23517722 -0.3285946 -0.5145677 -0.3333476 0.10781669 -0.6430711 -0.4016653 -0.6547006
0.009204323 -0.14491408 0.03365641 -0.40408167 -0.14173028 -0.92678815 -0.42894486 -0.32138428
-0.44892254 -0.19970286 -0.37518278 0.31518888 -0.31276572 -0.38373837 -0.34176028 -0.149988
00000000: 5524 6ebe d388 87be 54ef 11bf eed5 69bf
00000010: 1be7 8abe f354 7bbe 3b92 38bf 1e9c 47be
00000020: 3a16 ddbe 5064 efbe 8fa2 d5be 6d87 12bf
00000030: 18f0 93be f934 2cbf fe51 22bf 385b 343e
00000040: 8617 99be c73d 14bf a310 bd3d 555a fbbc
00000050: d7fb 1fbe b3cc 95be d7a1 61be ccea 9d3e
00000060: 7aae 253d bf05 d4be eb00 04bf e59e 6a3e
00000070: 8565 08bf 3bc0 dabe e42f 953c fc10 07bf
00000080: 6231 d33d 9da4 d9bc 9942 13bf f001 283f
00000090: 808d d83d 1fbe d5be 6895 90bd 7bcf 32bf
000000a0: a90c 1cbf df87 57bf ebcc dbbe a501 023f
000000b0: 7142 78bf 5172 1a3c e3c7 cabe 0e71 86be
000000c0: 55ce d5be b17e 02bf 366e fbbe 0899 68bf
000000d0: ee59 75be 6ffc 2cbf dea5 0ebf 3f82 d3be
000000e0: ed5b 15bf bffa 13bf db79 12bf 5899 09bf
000000f0: 49cb 92be 889b 0ebf 6178 12be cf8f e1be
00000100: 0e5a 0cbf baea 0cbd bfff eebe fd36 d7be
00000110: b0cf 02be a724 a9be ae5a e6be a540 3dbf
00000120: df6b 23bf 336b 99be 6529 b1bd 2297 1ebf
00000130: 3e2e 25be 6d16 2abf c423 98be 3d07 bdbe
00000140: bf79 6ebe 7252 e0bd 5950 263e e4f6 b9be
00000150: b579 c0bd a467 ecbe f3cf 3cbe 57ee c5be
00000160: 4250 2bbf fb9c 22bf 0a61 adbe 6018 4bbd
00000170: 465d e7bd ea66 52be d000 073e 9963 0abe
00000180: 6397 92be fe3d 983e 5ac0 13bf 7f75 9dbe
00000190: 4ac2 0bbf b55b 84be 1364 25bf 6f51 f9bd
000001a0: 4cd2 70be 8d3d a8be b5ba 03bf 89ac aabe
000001b0: ffce dc3d 4fa0 24bf 13a7 cdbe 759a 27bf
000001c0: bbcd 163c 5b64 14be 4edb 093d cbe3 cebe
000001d0: be21 11be fd41 6dbf a99e dbbe 7b8c a4be
000001e0: 2dd9 e5be e87e 4cbe f517 c0be 7060 a13e
000001f0: d422 a0be 5b79 c4be 34fb aebe 7496 19be

network_body._body_endoder.seq_layers.2.weight f4 [128, 128]
-0.022819526 -0.024830561 -0.017153377 -0.3316759 0.2956198 0.09396229 0.307247 -0.44208065
0.24379675 -0.5912266 0.18817413 -0.32498413 0.26820534 0.22893767 -0.07741759 -0.055756025
-0.4246838 -1.2487961 -0.61364996 0.34708038 -0.9465835 0.17999543 -0.07799261 -0.23732929
0.00448606 -0.067874186 -0.080045566 -0.2690902 0.16416459 0.34808847 0.17203726 -0.4087182
0.49964345 -0.34220544 -0.20320824 -0.6549241 0.23918307 0.24469833 -0.6806392 -0.17378642
0.16223182 -0.53239286 0.3542522 0.23335269 -0.8276821 -0.3809398 0.03135743 -0.35936743
-0.71489877 0.18510488 -0.43237904 -0.34170982 -0.40038967 0.13091879 0.1873816 -0.14952426
0.2777309 -0.47346386 -0.7192247 -0.35450533 -1.2850636 -0.26650685 -0.14493985 -0.5532858
-0.2993801 0.4220728 -0.54011196 0.28196755 0.11677941 -0.6375674 -0.09471308 0.10666712
0.024849955 -0.43207508 -0.07567926 0.06910758 -0.26704395 -0.11591006 -0.20842114 0.3587159
-0.20915152 -0.53811604 -0.12937461 -0.012126099 -0.171502 0.03103815 -0.49067423 0.21842654
-0.17868105 -0.2513299 0.012974327 0.13882792 -0.6114492 -0.12263249 0.1211649 -0.6952442
0.067449495 -0.8580576 0.08950076 -0.19936647 0.11239026 -0.13681966 -0.08959012 -0.38670075
-0.8010065 -0.25145173 0.08055005 -0.22327924 -0.6972822 -0.5694732 -0.058691494 0.27254948
-0.037071172 -0.41781402 0.06128184 -0.29738927 0.029446218 -0.3036757 -0.41091838 -0.07840784
-0.16902782 -0.03414242 -0.15943857 0.050535645 0.39825422 -0.021684496 -0.0022796001 0.021141678
-0.13573101 -0.24797535 -0.3507343 -0.00546035 -0.47348657 -0.38154727 -0.47441298 0.28441322
-0.02390715 -0.5498583 0.3489787 -0.56336 -0.24903086 0.12142151 -0.67563283 0.20272692
0.20737068 -0.63864875 0.51899254 0.35563427 0.28136715 0.038968112 -0.20891933 0.5177602
0.09146193 -0.32816717 -0.120252065 -0.33883125 0.07974892 0.77399683 0.09663983 -0.35795584
0.03716058 -0.663011 -0.089806706 -0.07607518 -0.5337078 -0.34332946 0.41662028 0.31201547
0.39759377 0.27012146 -0.10300549 0.071033254 -0.89092094 -0.09198729 -0.103649385 0.37041008
0.67790806 -0.2554671 -0.4852424 -0.5918338 0.03644741 -0.43929017 -0.2038227 -0.07876371
0.19396022 -0.24980898 -0.48347905 -0.5483788 0.02213142 0.08729602 -0.48951653 -0.1716386
-0.45306164 0.14910953 -0.9969505 -0.02800233 -0.116935804 -0.73220414 -0.07989777 0.29248503
-0.17202507 0.349995 -0.17105478 -0.4866308 -0.12859146 -0.2570583 -0.03052608 0.20479701
-0.015748207 -0.14584556 -0.93623734 -0.4634543 0.3411444 -0.04369981 -1.0350751 0.21908528
-0.23678589 0.44140965 -0.09062197 -0.7968273 -0.30084172 -0.11023766 0.36940962 -0.10158976
0.394822 -0.10541013 0.6361583 -0.14547095 -0.18502192 0.03279803 -0.22211194 -0.33140215
-0.19850977 0.060526393 -0.016679097 0.44583204 -0.30881453 -0.003545229 0.11812564 -0.1394219
0.0057653133 -0.22831082 -0.2194177 -0.13359009 -0.27789226 -0.22193973 -0.6708386 -0.7620977
-0.26846752 0.3799133 -0.11800452 0.16151449 0.26174542 0.17545556 0.27841458 -0.04257159
00000000: 04f0 babc 7669 cbbc 3d85 8cbc 6cd1 a9be
00000010: 7a5b 973e 4d6f c03d 7b4f 9d3e 6558 e2be
00000020: dba5 793e a05a 17bf b8b0 403e 5264 a6be
00000030: 3652 893e a36e 6a3e 1d8d 9ebd 6e60 64bd
00000040: 2870 d9be 8dd8 9fbf 2a18 1dbf 85b4 b13e
00000050: 4c53 72bf b950 383e 97ba 9fbd 7306 73be
00000060: ccff 923b 9f01 8bbd eeee a3bd 31c6 89be
00000070: c31a 283e a738 b23e 892a 303e 8343 d1be
00000080: 44d1 ff3e 8d35 afbe d215 50be 1ba9 27bf
00000090: 68ec 743e 3392 7a3e 5f3e 2ebf 11f5 31be
000000a0: 1920 263e e64a 08bf 8b60 b53e 02f4 6e3e
000000b0: f9e2 53bf 8b0a c3be a670 003d 02ff b7be
000000c0: 9b03 37bf 228c 3d3e c960 ddbe 97f4 aebe
000000d0: e0ff ccbe 930f 063e f6e0 3f3e e31c 19be
000000e0: bf32 8e3e db69 f2be 1c1f 38bf b981 b5be
000000f0: f77c a4bf 9673 88be 1d6b 14be 23a4 0dbf
00000100: 5948 99be ed19 d83e c744 0abf 0d5e 903e
00000110: 0b2a ef3d 9e37 23bf eef8 c1bd 4a74 da3d
00000120: 2292 cb3c f238 ddbe bafd 9abd 4688 8d3d
00000130: fcb9 88be 4162 edbd 5a6c 55be 9ca9 b73e
00000140: d12b 56be f9c1 09bf c77a 04be 8cac 46bc
00000150: 389e 2fbe b843 fe3c a739 fbbe 35ab 5f3e
00000160: 2af8 36be 50ae 80be 4692 543c e828 0e3e
00000170: ef87 1cbf be26 fbbd 4e25 f83d 86fb 31bf
00000180: f622 8a3d aaa9 5bbf 2d4c b73d b926 4cbe
00000190: dd2c e63d 741a 0cbe 067b b7bd a4fd c5be
000001a0: c30e 4dbf 48be 80be 6df7 a43d 50a3 64be
000001b0: 1681 32bf ffc8 11bf 7e66 70bd 9b8b 8b3e
000001c0: f1d7 17bd b8eb d5be ab02 7b3d 6843 98be
000001d0: 3239 f13c 627b 9bbe e563 d2be 4a94 a0bd
000001e0: a115 2dbe ecd8 0bbd dd43 23be 77fe 4e3d
000001f0: fae7 cb3e afa3 b1bc 5865 15bb 5031 ad3c
00000200: 12fd 0abe 40ed 7dbe 7293 b3be bcec b2bb
00000210: d56c f2be 2a5a c3be 42e6 f2be 9c9e 913e
00000220: edd8 c3bc 83c3 0cbf 56ad b23e 5c38 10bf
00000230: f201 7fbe d7ab f83d 46f6 2cbf a597 4f3e
00000240: fb58 543e 7c7e 23bf b2dc 043f b215 b63e
00000250: 5b0f 903e 079d 1f3d f3ee 55be ef8b 043f
00000260: 6450 bb3d 8705 a8be b746 f6bd 4a7b adbe
00000270: 6753 a33d a824 463f 1aeb c53d fd45 b7be
00000280: b135 183d 17bb 29bf 94ec b7bd 4ecd 9bbd
00000290: 13a1 08bf e1c8 afbe 414f d53e 7ec0 9f3e
000002a0: 6991 cb3e 5c4d 8a3e 8bf4 d2bd e279 913d
000002b0: 6513 64bf d563 bcbd 2146 d4bd 64a6 bd3e
000002c0: 628b 2d3f 95cc 82be b171 f8be 6b82 17bf
000002d0: e149 153d a4ea e0be e6b6 50be de4e a1bd
000002e0: 829d 463e edcd 7fbe 918a f7be 8e62 0cbf
000002f0: f44c b53c 41c8 b23d e9a1 fabe 07c2 2fbe
00000300: b2f7 e7be 2bb0 183e 2638 7fbf 2465 e5bc
00000310: 0a7c efbd bb71 3bbf 71a1 a3bd 99c0 953e
00000320: 5727 30be 8b32 b33e fc28 2fbe ac27 f9be
00000330: 7bad 03be 259d 83be d411 fabc 4fb6 513e
00000340: 6202 81bc 8a58 15be 40ad 6fbf e249 edbe
00000350: 7baa ae3e 92fe 32bd 577d 84bf e457 603e
00000360: 0078 72be 7200 e23e 0398 b9bd e0fc 4bbf
00000370: ed07 9abe 48c4 e1bd 4223 bd3e 4b0e d0bd
00000380: 1c26 ca3e 44e1 d7bd 45db 223f 56f6 14be
00000390: 6376 3dbe 3a57 063d 5071 63be 8bad a9be
000003a0: 2546 4bbe 86ea 773d 9aa2 88bc 1944 e43e
000003b0: f01c 9ebe 1357 68bb dbeb f13d 9dc4 0ebe
000003c0: f4ea bc3b 50ca 69be 09af 60be d7cb 08be
000003d0: e547 8ebe 2b44 63be 14bc 2bbf d618 43bf
000003e0: 9374 89be ff83 c23e 5bac f1bd 0e64 253e
000003f0: 7f03 863e 9faa 333e 5b8c 8e3e 8c5f 2ebd

network_body.observation_encoder.processors.0.normalizer.running_mean f4 [21]
0.97649795 0.023500454 0.31785357 0.9761338 0.023863764 0.3199153 0.97753936 0.022458997
0.3152867 0.9761234 0.023875425 0.31825095 0.9769039 0.023091914 0.3185211 0.9774916
0.022505773 0.31595418 0.9768613 0.023133246 0.31907067
00000000: c5fb 793f 0684 c03c b4bd a23e e8e3 793f
00000010: f17d c33c f0cb a33e 0540 7a3f eefb b73c
00000020: 426d a13e 39e3 793f 6596 c33c caf1 a23e
00000030: 6016 7a3f 412b bd3c 3315 a33e e43c 7a3f
00000040: 075e b83c bfc4 a13e 9513 7a3f ef81 bd3c
00000050: 3b5d a33e

network_body.observation_encoder.processors.1.normalizer.running_mean f4 [25]
-0.9478188 0.14885391 -0.61088765 -2.7239653e-06 3.2358497e-05 -0.9485347 0.14537664 -0.6116057
-5.5829687e-06 3.8833212e-05 -0.9492512 0.1416525 -0.612317 -9.7099155e-06 4.6315814e-05 -0.9499773
0.1376734 -0.6130262 -1.4230193e-05 5.502957e-05 -0.9507089 0.13343024 -0.61373574 -1.8030347e-05
6.58358e-05
00000000: 41a4 72bf 296d 183e 2263 1cbf 5ecd 36b6
00000010: acb8 0738 2cd3 72bf 9ddd 143e 3192 1cbf
00000020: 5655 bbb6 d8e0 2238 2002 73bf 5a0d 113e
00000030: cfc0 1cbf c5e7 22b7 3a43 4238 b631 73bf
00000040: 41fa 0c3e 49ef 1cbf 37be 6eb7 8dcf 6638
00000050: a961 73bf f0a1 083e c91d 1dbf e03f 97b7
00000060: 5311 8a38
