UAV NS for Power Lines Monitoring/Assets/NN models/UAVSS-3999155.onnx (onnx, 96281 bytes, 10 tensors)

59 f4 [21]
0.06664493 0.066382125 0.07963787 0.06387759 0.06339825 0.073954195 0.06739924 0.067052625
0.07824946 0.057974882 0.057549182 0.0706685 0.058669023 0.058244254 0.071155556 0.06755893
0.06718929 0.078284696 0.06677114 0.066395134 0.07750445
00000000: 237d 883d 5af3 873d 2e19 a33d 41d2 823d
00000010: f1d6 813d 4c75 973d 9d08 8a3d e352 893d
00000020: 4141 a03d 1277 6d3d b1b8 6b3d a6ba 903d
00000030: ee4e 703d 8791 6e3d 01ba 913d 565c 8a3d
00000040: 8a9a 893d ba53 a03d 4fbf 883d 2cfa 873d
00000050: a7ba 9e3d

62 f4 [25]
0.18639338 0.11446709 0.18062484 0.03622278 0.034208644 0.18759038 0.11505048 0.18178663
0.036523074 0.03448745 0.18884496 0.11566288 0.18300423 0.03683469 0.034778487 0.19015686
0.11630588 0.18427704 0.03715753 0.035082325 0.19152729 0.11698148 0.1856062 0.037491728
0.035399735
00000000: e8dd 3e3e b96d ea3d b8f5 383e 565e 143d
00000010: 5d1e 0c3d b117 403e 969f eb3d 4626 3a3e
00000020: 3899 153d b642 0d3d 9360 413e a9e0 ec3d
00000030: 7665 3b3e f9df 163d e373 0e3d 7bb8 423e
00000040: c731 ee3d 1fb3 3c3e 7f32 183d 7cb2 0f3d
00000050: bb1f 443e fc93 ef3d 8d0f 3e3e ed90 193d
00000060: 50ff 103d

action_model._discrete_distribution.branches.0.bias f4 [6]
0.031149115 0.048161015 -0.015377202 0.02241715 0.05352662 -0.11185225
00000000: 6e2c ff3c 7c44 453d a9f0 7bbc 2ca4 b73c
00000010: bb3e 5b3d cb12 e5bd

action_model._discrete_distribution.branches.0.weight f4 [6, 128]
0.012280517 -0.07347832 -0.10006842 0.050128452 0.05099702 -0.032575846 -0.08626263 0.058706865
0.029508745 0.04080619 -0.0951157 -0.034545787 0.02057796 0.012358358 -0.0042157774 -0.063300215
0.007233636 -0.09071273 -0.051308267 -0.067607716 -0.033038095 0.043733496 0.008543184 -0.06904939
-0.015119034 0.065045565 -0.09145237 0.018976454 -0.013218187 -0.0027320168 0.06317132 -0.04945644
-0.07707502 -0.13055333 0.013972007 -0.06574269 -0.02922105 -0.07338653 -0.088000774 0.08907609
-0.097332425 0.03692194 -0.013430282 0.036822483 -0.046583474 0.07846008 0.0011495776 -0.037223037
0.027451038 0.031957623 -0.05372387 -0.101514064 0.077676535 0.008292999 0.019598512 -0.028963743
-0.08232149 0.08118299 -0.16622047 -0.11672015 -0.012583058 -0.04498266 -0.035615142 0.05339195
-0.08956273 0.059656333 0.0036338996 0.044510007 0.06967483 -0.008665652 0.04769047 -0.058709417
-0.028936584 -0.033774395 -0.10475789 -0.023467077 -0.0035119513 -0.07335857 -0.05683292 0.020635365
-0.014989352 -0.14041753 -0.011791957 -0.069054075 0.08394333 -0.036694452 -0.07232899 0.09122044
-0.024756206 -0.069229744 -0.0679677 0.0562491 -0.051037967 0.007372474 -0.107968174 0.039838694
-0.086463965 -0.022838011 -0.035917014 0.026372029 -0.08978455 -0.019252155 -0.089113325 -0.12520011
-0.11385271 -0.041904036 0.06626691 -7.973353e-05 0.031207705 -0.056569703 0.008931091 0.05092814
0.042538058 0.026696822 0.03088469 0.06895325 0.043768845 0.034566008 -0.06783945 -0.063176416
0.015341019 -0.03584906 0.00094705913 -0.10379787 -0.020476514 -0.022476139 -0.037318774 0.063849755
-0.021355582 -0.20317246 0.019486837 -0.08383854 0.08054862 0.043544486 0.1774317 0.038002327
-0.23880215 0.09997324 0.053926893 -0.044283208 0.04344461 -0.17027842 0.14154334 0.06628366
-0.23020905 -0.04763624 -0.043423627 0.078376316 0.009654472 -0.09379021 0.059273466 -0.1827567
-0.11532859 -0.15282594 -0.13617867 0.07616067 -0.2771505 0.011925564 0.017047005 -0.011907676
0.09907016 -0.117140755 0.044417318 -0.03498228 0.09582424 -0.12710157 0.12607642 -0.10358973
0.108700216 -0.08950582 0.0037190965 -0.06059042 0.014376501 -0.020675132 0.07765626 -0.007468563
-0.030570544 0.06259735 0.05614673 -0.123190716 -0.008294962 0.10724882 -0.34265113 0.067330986
0.12115587 0.12180796 -0.1527293 0.053487476 0.08808723 0.085640796 0.0069688307 -0.01691148
0.07539361 0.017430382 0.07641916 -0.27145204 -0.07799887 0.25857392 -0.07224517 0.057610568
0.12234464 0.024937943 0.0346505 -0.14932138 -0.23352997 -0.3351993 -0.00877434 -0.16271846
0.14899074 -0.008900122 -0.13378973 0.04895286 -0.05675872 -0.13245071 -0.09011641 -0.1776585
-0.07310068 0.055871025 -0.276195 0.039450932 0.066939384 0.0741987 0.13849854 0.07635689
-0.1813927 0.020117402 0.039949253 0.013936635 -0.1445403 0.083343945 -0.10300883 0.16913475
-0.038122967 0.1192864 0.018041493 -0.09641953 0.13211969 -0.011871413 0.03501022 -0.0015358798
-0.28568175 -0.01235456 -0.09431426 -0.16069838 0.0061505977 -0.32405588 -0.20169118 -0.029863857
0.050330594 0.04897392 0.077909075 -0.09800963 0.045830622 -0.14925474 -0.02826696 0.066354595
00000000: 3934 493c cd7b 96bd acf0 ccbd 7e53 4d3d
00000010: 40e2 503d 406e 05bd 76aa b0bd 9c76 703d
00000020: 53bc f13c 6424 273d 05cc c2bd e27f 0dbd
00000030: 1c93 a83c b67a 4a3c 8124 8abb 8ba3 81bd
00000040: 2308 ed3b 99c7 b9bd 9e28 52bd ea75 8abd
00000050: f452 07bd e521 333d b6f8 0b3c c469 8dbd
00000060: d3b5 77bc 9c36 853d 614b bbbd 8274 9b3c
00000070: 1891 58bc a30b 33bb f75f 813d d692 4abd
00000080: 82d9 9dbd c6af 05be d8ea 643c 1aa4 86bd
00000090: fc60 efbc ad4b 96bd c039 b4bd 866d b63d
000000a0: 3956 c7bd 763b 173d af0a 5cbc 2cd3 163d
000000b0: 50ce 3ebd aeaf a03d 6cad 963a 2f77 18bd
000000c0: 00e1 e03c ffe5 023d 900d 5cbd 9be6 cfbd
000000d0: e014 9f3d 5cdf 073c 0f8d a03c 5f45 edbc
000000e0: 2b98 a8bd 4443 a63d b335 2abe f90a efbd
000000f0: 2c29 4ebc bd3f 38bd 2fe1 11bd 84b1 5a3d
00000100: aa6c b7bd 335a 743d b826 6e3b 2050 363d
00000110: adb1 8e3d 61fa 0dbc 1557 433d 4979 70bd
00000120: 6a0c edbc 0557 0abd 4e8b d6bd 073e c0bc
00000130: c428 66bb 053d 96bd a3c9 68bd 7f0b a93c
00000140: e695 75bc 9dc9 0fbe 0d33 41bc 396c 8dbd
00000150: 7bea ab3d ec4c 16bd 3921 94bd c8d1 ba3d
00000160: 87cd cabc 53c8 8dbd a632 8bbd 7565 663d
00000170: 300d 51bd cb94 f13b 6b1e ddbd e62d 233d
00000180: 0514 b1bd c816 bbbc b81d 13bd 270a d83c
00000190: f6e0 b7bd b2b6 9dbc 0c81 b6bd 7534 00be
000001a0: 9c2b e9bd 91a3 2bbd f2b6 873d 9d36 a7b8
000001b0: 4da7 ff3c a2b5 67bd b653 123c 069a 503d
000001c0: 633c 2e3d 4bb3 da3c e401 fd3c 5d37 8d3d
000001d0: f646 333d 1695 0d3d 69ef 8abd a362 81bd
000001e0: e658 7b3c 77d6 12bd 1044 783a fa93 d4bd
000001f0: 5dbe a7bc e11f b8bc 92db 18bd a9c3 823d
00000200: e7f1 aebc 710c 50be dca2 9f3c 8ab3 abbd
00000210: adf6 a43d b45b 323d a8b0 353e 54a8 1b3d
00000220: 8d88 74be c5be cc3d 72e2 5c3d 4f62 35bd
00000230: faf2 313d 775d 2ebe bdf0 103e babf 873d
00000240: ecbb 6bbe 381e 43bd f9dc 31bd c383 a03d
00000250: ca2d 1e3c 1515 c0bd bcc8 723d 9324 3bbe
00000260: 6531 ecbd 677e 1cbe 6c72 0bbe 20fa 9b3d
00000270: ace6 8dbe 7163 433c 29a6 8b3c 6a18 43bc
00000280: 4ce5 ca3d 7ee7 efbd efee 353d 9449 0fbd
00000290: 803f c43d ea26 02be 2d1a 013e da26 d4bd
000002a0: 389e de3d d44e b7bd 16bc 733b a92d 78bd
000002b0: 6a8b 6b3c e55e a9bc 3f0a 9f3d d9ba f4bb
000002c0: 146f fabc 0a33 803d 1dfa 653d 6a4b fcbd
000002d0: 98e7 07bc 45a5 db3d f86f afbe d4e4 893d
000002e0: 9220 f83d 7476 f93d 1265 1cbe af15 5b3d
000002f0: 1467 b43d 7164 af3d ca5a e43b f289 8abc
00000300: f767 9a3d 29ca 8e3c a681 9c3d c3fb 8abe
00000310: dfbd 9fbd cd63 843e 47f5 93bd 0ff9 6b3d
00000320: d48f fa3d a84a cc3c afed 0d3d b4e7 18be
00000330: 7b22 6fbe 3e9f abbe 40c2 0fbc ab9f 26be
00000340: 0791 183e d1d1 11bc 2d00 09be cb82 483d
00000350: d57b 68bd 29a1 07be f48e b8bd 1cec 35be
00000360: cfb5 95bd 04d9 643d 6e69 8dbe 4d97 213d
00000370: 8417 893d 7df5 973d 90d2 0d3e 0061 9c3d
00000380: 02bf 39be 40cd a43c d4a1 233d 7c56 643c
00000390: 5f02 14be 3bb0 aa3d 4bf6 d2bd a931 2d3e
000003a0: d426 1cbd 6e4c f43d c1cb 933c 9a77 c5bd
000003b0: 624a 073e 5180 42bc e066 0f3d 934f c9ba
000003c0: e144 92be c86a 4abc d627 c1bd 1e8e 24be
000003d0: f48a c93b a7ea a5be 2288 4ebe 0ca5 f4bc
000003e0: 7427 4e3d e198 483d cb8e 9f3d 46b9 c8bd
000003f0: e4b8 3b3d 3cd6 18be 1d90 e7bc ebe4 873d

network_body._body_endoder.seq_layers.0.bias f4 [128]
0.11455746 -0.12626088 -0.07299384 0.16446176 0.10270757 -0.05964523 -0.05390067 -0.17976065
0.019376835 0.08682971 0.121985726 -0.01941469 -0.1469183 0.05023634 -0.2661947 0.0046526548
-0.039127022 0.12925684 0.06401651 0.13852155 -0.034013502 0.11974162 0.07550408 0.036774643
0.03856224 0.16523974 -0.0726322 -0.016200917 0.07657852 -0.0817728 0.04270593 0.029967802
0.11341008 0.1291214 0.03816487 -0.1210373 -0.10122324 0.12098775 0.1343056 0.0358067
-0.057448145 -0.04044555 -0.16017729 0.19279853 -0.09776792 0.09119419 0.078869425 -0.0041688383
0.07111619 0.03132217 0.06922593 0.059909675 -0.15641288 0.2272114 0.08928452 -0.20782535
0.04593913 -0.018718751 0.05054906 0.14596145 0.045085885 -0.06027821 -0.18072388 -0.12772681
-0.017838782 0.07334263 -0.06112034 0.03952486 0.051502287 0.121411495 0.022831423 -0.0057545304
0.017472532 0.07436063 0.103402905 0.05918448 0.019535333 0.037546456 -0.019265039 0.06925922
-0.0045189657 -0.024536537 0.079858035 -0.17470755 -0.019248953 0.02349645 0.010338973 -0.07986829
-0.08509332 0.08230466 -0.008471903 0.07944412 0.13769254 0.088352725 0.11286035 0.08891338
-0.20118141 0.026869057 -0.00805165 -0.06948614 0.034584902 -0.098542295 0.0513101 0.08414822
-0.009729102 0.13735077 0.01980061 -0.016678054 0.1709835 -0.0032034074 -0.09544378 0.011898789
-0.19500378 -0.023775805 -0.09176646 -0.15321243 0.075523116 0.1224853 0.039754186 0.08447344
0.13978016 0.0035612646 -0.13480258 -0.12066024 0.02295501 0.0514728 0.12081941 -0.31755224
00000000: 1a9d ea3d 884a 01be cb7d 95bd aa68 283e
00000010: 5958 d23d 8f4e 74bd f3c6 5cbd 2d13 38be
00000020: 2bbc 9e3c c6d3 b13d a7d3 f93d 8e0b 9fbc
00000030: c071 16be 9fc4 4d3d ac4a 88be 4c75 983b
00000040: a843 20bd e85b 043e 171b 833d 98d8 0d3e
00000050: be51 0bbd 183b f53d e2a1 9a3d 02a1 163d
00000060: 70f3 1d3d 9b34 293e 31c0 94bd c9b7 84bc
00000070: 33d5 9c3d 7f78 a7bd 6aec 2e3d 097f f53c
00000080: 8b43 e83d 6638 043e c452 1c3d 67e2 f7bd
00000090: 214e cfbd 6dc8 f73d 6887 093e 0caa 123d
000000a0: bf4e 6bbd 3caa 25bd 8405 24be fa6c 453e
000000b0: 8c3a c8bd 05c4 ba3d 4b86 a13d c09a 88bb
000000c0: 5da5 913d ad4b 003d 53c6 8d3d d963 753d
000000d0: b32a 20be 1baa 683e cdda b63d 2bd0 54be
000000e0: ab2a 3c3d 1158 99bc 880c 4f3d eb76 153e
000000f0: faab 383d 49e6 76bd ae0f 39be d1ca 02be
00000100: a322 92bc a934 963d 5259 7abd d2e4 213d
00000110: 10f4 523d 97a6 f83d f708 bb3c 8090 bcbb
00000120: 8e22 8f3c 634a 983d e7c4 d33d 6d6b 723d
00000130: 9008 a03c 50ca 193d b7d1 9dbc c7d7 8d3d
00000140: d513 94bb d900 c9bc 9c8c a33d 89e6 32be
00000150: fbaf 9dbc a17b c03c cc64 293c fc91 a3bd
00000160: 6845 aebd 588f a83d bdcd 0abc 99b3 a23d
00000170: 46ff 0c3e 46f2 b43d 5423 e73d 3818 b63d
00000180: 8002 4ebe 7f1c dc3c 11eb 03bc c04e 8ebd
00000190: e6a8 0d3d 8bd0 c9bd 8a2a 523d e755 ac3d
000001a0: d066 1fbc aea5 0c3e e434 a23c 6aa0 88bc
000001b0: 4c16 2f3e 42f0 51bb 0778 c3bd 23f3 423c
000001c0: 12af 47be 7ac5 c2bc 0ef0 bbbd b8e3 1cbe
000001d0: ddab 9a3d 93d9 fa3d 49d5 223d 6900 ad3d
000001e0: 8822 0f3e 1b64 693b b009 0abe b71c f7bd
000001f0: 250c bc3c 25d5 523d 2b70 f73d 3596 a2be

network_body._body_endoder.seq_layers.0.weight f4 [128, 46]
-0.041582678 -0.06608397 -0.048330586 -0.06182174 0.0628094 0.21807644 0.40892965 -0.010142021
-0.10326584 0.13236718 0.110945985 0.061296783 -0.058492035 -0.084980555 -0.032983996 0.09940756
-0.17723039 -0.15526764 0.12191525 -0.15494177 -0.17962213 0.1259554 0.076788075 0.07307552
-0.07983956 -0.3035003 0.058229964 0.07675994 0.19392554 0.23594464 -0.16480021 0.12275046
0.20220415 -0.16282879 -0.1991786 -0.43577066 0.02269013 -0.00059201213 0.039218783 0.18809463
0.22666682 -0.2479253 0.026447816 0.14452562 -0.2152011 0.2526105 0.19235313 0.074744925
0.14346696 0.051271476 0.09098063 -0.10617657 -0.087081075 -0.14264432 0.1367263 -0.062450077
-0.04356546 0.28943872 -0.091171086 -0.030671114 0.015510887 0.045373403 0.003890867 -0.1991246
0.04441381 -0.003011737 0.14712301 0.12815 0.14197086 0.35836795 0.21283871 -0.045814104
0.13651206 0.2003007 0.021016546 0.09781197 0.010385923 -0.004906285 -0.06262295 0.0042729974
0.15798964 0.033840925 -0.010341556 -0.42339748 0.053912126 -0.11123204 0.061441947 -0.10171194
-0.44118533 -0.064335935 -0.21377161 0.086727045 0.030500343 -0.07010512 0.015205247 -0.07305962
-0.10857735 0.085494295 0.23319724 0.12783812 0.09392615 -0.17437834 0.10904162 -0.014232326
-0.16670996 0.17007115 -0.049500596 -0.12484968 -0.16828105 0.50272113 0.18988724 -0.1775387
0.2194751 0.003991642 0.06490598 -0.05844067 0.025506359 0.088116355 0.12568654 -0.045876868
-0.21334815 0.0037209236 0.20812954 -0.13206445 0.0055183102 0.3313191 -0.14158885 -0.16170715
-0.09902458 0.22628938 0.093889266 0.028327862 0.011757656 -0.051448397 -0.14906006 0.35067967
-0.14175735 -0.13498491 -0.12371326 0.022627331 -0.07605168 -0.059812233 -0.18768677 -0.14440736
0.06527192 0.04372645 -0.17628285 -0.05156796 0.061797623 -0.13413405 0.015398455 -0.5185175
0.14014095 0.33578902 -0.3545611 -0.18163612 -0.047717493 -0.2770874 -0.12924545 -0.046775885
-0.014988564 -0.13999903 0.006272792 0.048413344 -0.15937613 0.13859312 0.052371915 -0.20085678
-0.25932404 -0.054155145 0.014585009 -0.20687585 -0.11089289 -0.11509335 0.25366282 0.14578554
0.10510633 0.22706532 -0.12782352 0.46810725 0.083962366 0.007470717 -0.47462985 -0.036028743
0.104578204 0.04044185 -0.121392354 0.37780148 -0.42154872 0.23097259 0.0065573636 0.008443315
-0.24998531 -0.000279819 0.2570997 -0.08177833 0.083308555 -0.2515283 -0.13838811 -0.045914486
-0.1481018 0.030509086 0.14247148 0.16316663 -0.55658305 0.17630702 -0.1218039 -0.12074587
-0.059410892 0.2063898 -0.11376302 0.055780165 -0.19065692 -0.0038351594 -0.16104312 -0.20593908
0.32778546 0.03900332 -0.10797128 0.12150404 -0.0855889 0.1585728 0.06086301 -0.22880058
0.2186642 -0.28153735 0.09287046 -0.121038705 -0.5314142 0.09971085 -0.30254936 0.123000056
0.0007721163 0.1387772 0.074724674 0.049806498 0.046113748 -0.098798685 -0.030290183 -0.14398058
0.07044439 -0.19189729 0.40904737 -0.01666339 0.20051958 0.094699 0.14338733 0.18287462
-0.13330758 -0.084269255 -0.09820027 -0.050591968 0.0993513 0.1741149 0.18403275 0.2361584
00000000: 9952 2abd 0857 87bd 4bf6 45bd cb38 7dbd
00000010: 37a2 803d 6e4f 5f3e 3a5f d13e b82a 26bc
00000020: 0a7d d3bd 438b 073e a637 e33d 5612 7b3d
00000030: 5895 6fbd 490a aebd 3a1a 07bd 3196 cb3d
00000040: e27b 35be 7bfe 1ebe b4ae f93d 0ea9 1ebe
00000050: ddee 37be 74fa 003e 1143 9d3d 9ea8 953d
00000060: ec82 a3bd 6464 9bbe 8b82 6e3d 5134 9d3d
00000070: 6b94 463e 799b 713e 63c1 28be 9864 fb3d
00000080: 9b0e 4f3e 97bc 26be 7af5 4bbe 551d dfbe
00000090: a7e0 b93c 4331 1bba e0a3 203d e19b 403e
000000a0: 591b 683e 21e0 7dbe 17a9 d83c 86fe 133e
000000b0: ad5d 5cbe 2a56 813e 38f8 443e de13 993d
000000c0: 01e9 123e 0a02 523d 0d54 ba3d 1a73 d9bd
000000d0: 9057 b2bd 5a11 12be fb01 0c3e a7cb 7fbd
000000e0: b271 32bd 5031 943e e8b7 babd fd41 fbbc
000000f0: 6021 7e3c 76d9 393d ebfd 7e3b 52e7 4bbe
00000100: 41eb 353d 9060 45bb 6aa7 163e c139 033e
00000110: cf60 113e 017c b73e 64f2 593e 92a7 3bbd
00000120: d1c9 0b3e a01b 4d3e e42a ac3c a451 c83d
00000130: b829 2a3c e7c4 a0bb 7640 80bd 8004 8c3b
00000140: 09c8 213e c89c 0a3d a16f 29bc 8ec7 d8be
00000150: f6d2 5c3d a0cd e3bd 8daa 7b3d 594e d0bd
00000160: 0be3 e1be 8fc2 83bd f2e6 5abe f39d b13d
00000170: dbdb f93c 4693 8fbd 6e1f 793c 48a0 95bd
00000180: cd5d debd a217 af3d 42cb 6e3e ffe7 023e
00000190: 5a5c c03d 3c90 32be 3651 df3d b42e 69bc
000001a0: 04b6 2abe 2227 2e3e 23c1 4abd 30b1 ffbd
000001b0: de51 2cbe 55b2 003f cd71 423e b4cc 35be
000001c0: 15be 603e 52cc 823b 6ded 843d 7c5f 6fbd
000001d0: b6f2 d03c 5976 b43d f9b3 003e 62e9 3bbd
000001e0: f077 5abe bdda 733b e91f 553e e73b 07be
000001f0: f1d2 b43b a8a2 a93e abfc 10be 8f96 25be
00000200: 66cd cabd 67b8 673e 0449 c03d d50f e83c
00000210: 2fa3 403c 8ebb 52bd 33a3 18be 498c b33e
00000220: d728 11be 7c39 0abe 615d fdbd f45c b93c
00000230: fcc0 9bbd acfd 74bd f630 40be 86df 13be
00000240: 49ad 853d 821a 333d 7e83 34be ed38 53bd
00000250: 811f 7d3d 705a 09be cd49 7c3c 90bd 04bf
00000260: 1c81 0f3e 8aec ab3e 0889 b5be d2fe 39be
00000270: 6b73 43bd 66de 8dbe eb58 04be 1298 3fbd
00000280: 9892 75bc e85b 0fbe fe8b cd3b 124d 463d
00000290: 7f33 23be 5beb 0d3e ef83 563d 66ad 4dbe
000002a0: 1fc6 84be c9d1 5dbd f6f5 6e3c 43d7 53be
000002b0: d01b e3bd 10b6 ebbd 18e0 813e ce48 153e
000002c0: fd41 d73d d083 683e 2be4 02be c1ab ef3e
000002d0: 76f4 ab3d ebcc f43b af02 f3be e092 13bd
000002e0: 192d d63d 5aa6 253d 8e9c f8bd 326f c13e
000002f0: 3cd5 d7be 1484 6c3e 27df d63b d455 0a3c
00000300: 26fc 7fbe acb4 92b9 92a2 833e 667b a7bd
00000310: ad9d aa3d 51c8 80be 9db5 0dbe d410 3cbd
00000320: 00a8 17be 31ee f93c 0be4 113e 2715 273e
00000330: 3a7c 0ebf d489 343e 5374 f9bd 9c49 f7bd
00000340: d658 73bd d957 533e 96fc e8bd be79 643d
00000350: 913b 43be 4c57 7bbb 7de8 24be b2e1 52be
00000360: 7fd3 a73e f2c1 1f3d 0c20 ddbd 1cd7 f83d
00000370: 3c49 afbd e860 223e 7e4b 793d b34a 6abe
00000380: 82e9 5f3e aa25 90be de32 be3d 24e3 f7bd
00000390: c30a 08bf 3435 cc3d c0e7 9abe 74e7 fb3d
000003a0: d967 4a3a 9c1b 0e3e 4009 993d e601 4c3d
000003b0: c5e1 3c3d f756 cabd 1e23 f8bc a56f 13be
000003c0: 2645 903d b980 44be a86e d13e a981 88bc
000003d0: 0155 4d3e 8df1 c13d 21d4 123e 7c43 3b3e
000003e0: c881 08be 5c95 acbd 391d c9bd 8639 4fbd
000003f0: b278 cb3d 2d4b 323e 1573 3c3e 82d3 713e

network_body._body_endoder.seq_layers.2.bias f4 [128]
-0.006605989 -0.018542722 -0.116617434 0.06580495 0.094129205 -0.040171154 0.04343014 0.11957555
0.10548525 0.12477508 -0.06427415 -0.088958114 -0.0038282461 0.081479624 0.06109083 -0.01176646
0.037738483 -0.09221517 -0.08218658 0.06433343 -0.11560067 -0.022704074 0.054442238 0.026087359
0.037186086 0.040300917 0.011532939 0.11104386 0.10565096 -0.09819684 0.082406476 0.08541532
-0.013756093 -0.05319391 0.0694565 -0.14506656 0.05584876 -0.07634404 0.016961321 0.036600064
0.05293111 0.17880464 0.034983765 -0.05546707 -0.046124075 0.0972744 0.02580674 0.00824888
0.20833169 0.1123504 -0.01501636 -0.059028424 0.003358297 0.15272705 0.080453284 0.015515379
0.06922736 0.14056805 0.009439823 -0.02116013 -0.0051165856 0.034466375 -0.029326426 0.11085283
-0.01448109 0.032840084 0.06540858 0.08035039 0.11419161 0.1603636 -0.060715713 -0.018591534
0.115094565 0.02307835 -0.042775255 0.034409538 0.06212148 0.09488852 -0.15527242 -0.011233771
0.122605376 -0.089205764 0.038979344 -0.0077323006 0.18211494 0.06691884 -0.1633003 0.18477947
-0.16642666 0.007560053 0.100499764 0.086328246 -0.00031331496 0.015501773 0.057066362 0.03251034
-0.021867165 -0.005773839 -0.05430546 -0.015458196 -0.06197231 0.017492019 -0.0060425173 0.07190323
0.10845593 0.14082988 0.29009932 -0.01046252 0.16257957 -0.058515556 0.004904308 0.090430155
0.0051360796 0.068864316 0.05080549 0.060329877 0.28894338 0.08923662 0.01393618 -0.10237712
-0.007977595 0.00424143 0.10526734 -0.099309646 0.14029522 0.082031235 -0.048652567 0.15905716
00000000: 0d77 d8bb e8e6 97bc 1fd5 eebd bfc4 863d
00000010: d0c6 c03d 828a 24bd cde3 313d 07e4 f43d
00000020: a708 d83d 148a ff3d 2aa2 83bd ac2f b6bd
00000030: 50e3 7abb cade a63d 613a 7a3d 1cc8 40bc
00000040: ab93 1a3d 4fdb bcbd 7051 a8bd 3fc1 833d
00000050: 0bc0 ecbd e5fd b9bc d3fe 5e3d 28b5 d53c
00000060: 7050 183d 9312 253d a7f4 3c3c f76a e33d
00000070: 885f d83d 6d1b c9bd bac4 a83d 3aee ae3d
00000080: 3c61 61bc dbe1 59bd 363f 8e3d 548c 14be
00000090: abc1 643d 445a 9cbd 78f2 8a3c f3e9 153d
000000a0: 4bce 583d 9018 373e 234b 0f3d 7031 63bd
000000b0: 99ec 3cbd cd37 c73d a868 d33c 4f26 073c
000000c0: e754 553e f717 e63d 2e07 76bc cac7 71bd
000000d0: e016 5c3b 7b64 1c3e b1c4 a43d 3734 7e3c
000000e0: 13c7 8d3d 12f1 0f3e 7da9 1a3c 0258 adbc
000000f0: 08a9 a7bb 9d2c 0d3d f93d f0bc cf06 e33d
00000100: 1842 6dbc 5383 063d eff4 853d bf8e a43d
00000110: 4add e93d 5b36 243e 0ab1 78bd 464d 98bc
00000120: b3b6 eb3d cf0e bd3c 1b35 2fbd 04f1 0c3d
00000130: 1873 7e3d ea54 c23d bcff 1ebe da0d 38bc
00000140: 8718 fb3d 83b1 b6bd cea8 1f3d 3d5f fdbb
00000150: 577c 3a3e bf0c 893d 3238 27be d436 3d3e
00000160: c06b 2abe 52ba f73b d2d2 cd3d ddcc b03d
00000170: 6c44 a4b9 26fb 7d3c 6bbe 693d 9029 053d
00000180: c522 b3bc 7932 bdbb 676f 5ebd 6044 7dbc
00000190: add6 7dbd 6c4b 8f3c 4f00 c6bb 0042 933d
000001a0: 251e de3d b535 103e e687 943e fd6a 2bbc
000001b0: 427b 263e 02ae 6fbd 51b4 a03b 7233 b93d
000001c0: 8f4c a83b bc08 8d3d 6b19 503d 761c 773d
000001d0: 63f0 933e b0c1 b63d 9354 643c 18ab d1bd
000001e0: 75b4 02bc b2fb 8a3b 6796 d73d db62 cbbd
000001f0: 8da9 0f3e feff a73d ea47 47bd e1df 223e

network_body._body_endoder.seq_layers.2.weight f4 [128, 128]
-0.01732957 0.2188329 0.11747385 -0.020363951 0.01274623 -0.039775982 -0.10389375 -0.03942328
0.031690806 -0.12129664 0.14177573 -0.036629718 -0.028078003 0.16328283 -0.02799633 0.053333443
0.09053616 -0.13573484 -0.037158202 0.07660917 -0.084188044 -0.02363617 0.07582857 0.04125041
-0.18661802 0.15286519 -0.043049846 0.08095595 0.11754588 0.1297779 0.030000757 0.04031795
0.18960007 0.043638643 -0.14026226 0.096981436 -0.13450286 -0.0033426136 -0.06774637 0.006847002
0.19415632 0.111273795 0.052201793 -0.12157581 0.12672605 0.120331086 0.091188915 0.11476526
0.2435539 0.04799959 0.13649917 0.07422886 -0.039397802 -0.044957597 -0.02966493 0.12130327
0.03106692 0.130119 0.1760453 0.003959295 -0.06076513 0.020594444 0.10800638 -0.091840625
0.094191164 -0.11123013 -0.007977691 -0.31899676 0.02090635 -0.059963387 -0.15390213 0.02491976
-0.07690833 -0.009520866 -0.099661104 -0.23119439 0.08044151 0.095455736 0.047641125 0.11476395
-0.13293593 -0.048534073 -0.021690002 0.060460705 -0.083017685 -0.2518306 0.006298383 -0.19096197
-0.022054 0.17897336 0.002986115 -0.056270365 -0.06591961 -0.12470824 -0.08258282 -0.043935303
-0.08388635 -0.24611321 -0.030916827 -0.07092659 -0.18194607 0.08614345 -0.08817939 0.1779016
-0.0091962125 0.14000441 -0.143133 0.024032569 0.018076109 0.13104492 0.07430932 0.024902102
0.03335925 0.016005164 0.12457494 0.11778043 0.289319 -0.013642197 -0.2831568 0.057892352
0.016792247 0.09982068 -0.15357216 0.086340055 0.050527535 0.063178845 -0.16827849 0.01958614
-0.1869723 -0.055095725 0.07289293 -0.26410303 -0.04996115 0.03295306 0.12014094 0.08480113
0.09467245 -0.029221116 -0.023386791 0.034385525 0.030032163 -0.0185422 -0.09578435 0.056617096
-0.275224 -0.12513424 0.21432295 0.034791823 -0.09639569 0.112436324 -0.06337465 -0.10787361
-0.00022446756 -0.29641873 0.007196147 -0.26089552 0.00039547213 -0.18504898 0.19793749 0.11211026
0.091373496 0.0068678353 -0.014779435 -0.0154386945 -0.07665062 -0.019838182 0.09694405 -0.19418932
-0.0059165508 0.026937343 -0.12939477 -0.00046738912 -0.0058416803 0.038529266 -0.19608697 0.20589638
-0.01569607 -0.020053506 -0.10674076 0.04024383 -0.104619205 0.031789098 0.031183135 -0.027518744
-0.050295718 0.0067357733 0.021451764 0.112113655 0.24029621 -0.23328146 -0.15101983 0.06253435
-0.10453416 -0.015477457 0.047691394 0.011449806 0.0153588075 -0.23305383 -0.18853834 -0.14652808
0.1660047 -0.033338625 0.07228214 -0.048690427 0.09384366 -0.0036501063 -0.034060586 -0.037384685
-0.078675106 -0.13049302 0.057208113 0.02097048 -0.103737414 0.10040302 -0.28035975 -0.01982982
-0.13700542 0.16729438 0.06263981 -0.10292223 0.19251388 -0.2834846 -0.057222903 -0.006538829
0.0366944 -0.12402035 -0.03851247 -0.09519567 0.019997712 0.08381187 0.1426331 -0.09670147
0.05557601 0.0377447 0.17538728 -0.09478029 -0.0028163807 0.033447936 0.09222731 0.016601885
-0.11092937 -0.0077585476 -0.17979105 -0.115525976 -0.07555449 -0.09588967 -0.041531727 -0.18030497
0.048358902 0.09408159 -0.17869979 -0.0035469122 0.01939213 0.126879 0.09017206 0.011897578
00000000: bef6 8dbc bb15 603e 2196 f03d 4dd2 a6bc
00000010: 90d5 503c 24ec 22bd 3fc6 d4bd 4e7a 21bd
00000020: 38ce 013d 5f6a f8bd a82d 113e 0b09 16bd
00000030: d703 e6bc 9d33 273e 8f58 e5bc 2b74 5a3d
00000040: 066b b93d 13fe 0abe 3333 18bd 45e5 9c3d
00000050: c86a acbd a4a0 c1bc 024c 9b3d 31f6 283d
00000060: cb18 3fbe b188 1c3e 0955 30bd 3ccc a53d
00000070: e5bb f03d 7fe4 043e 26c4 f53c 6f24 253d
00000080: 8526 423e 6fbe 323d e9a0 0fbe 349e c63d
00000090: 1ebb 09be c00f 5bbb 9cbe 8abd d15c e03b
000000a0: ead0 463e 84e3 e33d 8cd1 553d bdfc f8bd
000000b0: 79c4 013e 2570 f63d 41c1 ba3d 0c0a eb3d
000000c0: 3266 793e 389b 443d 70c6 0b3e 4d05 983d
000000d0: 975f 21bd 7525 38bd de03 f3bc d96d f83d
000000e0: 0e80 fe3c ea3d 053e 3845 343e f9bc 813b
000000f0: dbe4 78bd aeb5 a83c 7332 dd3d f016 bcbd
00000100: 4ce7 c03d 9fcc e3bd dcb4 02bc 8b53 a3be
00000110: cb43 ab3c 2b9c 75bd 8598 1dbe 8624 cc3c
00000120: 1d82 9dbd 68fd 1bbc 1f1b ccbd 39be 6cbe
00000130: 85be a43d 4c7e c33d 5723 433d 5d09 eb3d
00000140: 5b20 08be aacb 46bd 3baf b1bc a5a5 773d
00000150: 2d05 aabd f1ef 80be ab62 ce3b 898b 43be
00000160: 97aa b4bc cb44 373e b2b2 433b c17b 66bd
00000170: dc00 87bd 0967 ffbd 2e21 a9bd 81f5 33bd
00000180: 9bcc abbd 1a05 7cbe 4945 fdbc f641 91bd
00000190: 1250 3abe fa6b b03d 6597 b4bd d62b 363e
000001a0: b6ab 16bc 515d 0f3e 7591 12be f3df c43c
000001b0: 5914 943c a430 063e 7c2f 983d 7eff cb3c
000001c0: b5a3 083d 431d 833c 2521 ff3d de36 f13d
000001d0: 9f21 943e 8583 5fbc eef9 90be 8820 6d3d
000001e0: e58f 893c c96e cc3d 0542 1dbe 0ed3 b03d
000001f0: f6f5 4e3d e963 813d 3251 2cbe 1d73 a03c
00000200: ab75 3fbe 0eac 61bd e348 953d 8338 87be
00000210: 10a4 4cbd caf9 063d 740c f63d 37ac ad3d
00000220: a1e3 c13d 1f61 efbc a895 bfbc d6d7 0c3d
00000230: 0306 f63c d0e5 97bc 962a c4bd 54e7 673d
00000240: 29ea 8cbe 3123 00be 7a77 5b3e df81 0e3d
00000250: 1b6b c5bd 0445 e63d 92ca 81bd d7ec dcbd
00000260: 0d5f 6bb9 32c4 97be a8cd eb3b 1994 85be
00000270: 5f57 cf39 7b7d 3dbe 20b0 4a3e 109a e53d
00000280: 0722 bb3d 940b e13b 7125 72bc 94f2 7cbc
00000290: 00fb 9cbd af83 a2bc 9a8a c63d 91d9 46be
000002a0: a0df c1bb b4ab dc3c 1080 04be e80b f5b9
000002b0: 916b bfbb ddd0 1d3d 06cb 48be 80d6 523e
000002c0: 0b95 80bc 4047 a4bc e69a dabd b7d6 243d
000002d0: 9842 d6bd 4935 023d c673 ff3c fd6e e1bc
000002e0: e202 4ebd c3b7 dc3b 9cbb af3c d89b e53d
000002f0: 3610 763e 56e1 6ebe f1a4 1abe 0212 803d
00000300: 0116 d6bd 2995 7dbc 0d58 433d f897 3b3c
00000310: 82a3 7b3c aaa5 6ebe 3210 41be 750b 16be
00000320: 23fd 293e 158e 08bd a908 943d 9d6f 47bd
00000330: 1b31 c03d 9f36 6fbb 1d83 0bbd af20 19bd
00000340: 6a20 a1bd f69f 05be 0e53 6a3d 49ca ab3c
00000350: 4874 d4bd 19a0 cd3d 508b 8fbe 2672 a2bc
00000360: 264b 0cbe 384f 2b3e 4d49 803d e4c8 d2bd
00000370: 5c22 453e e524 91be 9062 6abd ac43 d6bb
00000380: de4c 163d 62fe fdbd 40bf 1dbd f3f5 c2bd
00000390: 3ed2 a33c 8fa5 ab3d 690e 123e 6c0b c6bd
000003a0: aca3 633d 309a 1a3d b998 333e 2b1c c2bd
000003b0: 0793 38bb b400 093d ace1 bc3d ad00 883c
000003c0: f02e e3bd 6a3b febb 251b 38be e298 ecbd
000003d0: 50bc 9abd ce61 c4bd 2c1d 2abd dea1 38be
000003e0: fc13 463d d9ad c03d 14fd 36be 5073 68bb
000003f0: 3fdc 9e3c 92ec 013e 21ac b83d 0fee 423c

network_body.observation_encoder.processors.0.normalizer.running_mean f4 [21]
0.9955395 0.004425946 0.124443665 0.9959053 0.004035348 0.12280519 0.99543685 0.004516204
0.12363546 0.99663025 0.0033227103 0.12247844 0.99654895 0.0034037228 0.1224303 0.9954167
0.004534681 0.12417008 0.9955229 0.0044276854 0.12390364
00000000: addb 7e3f 8707 913b 52dc fe3d a6f3 7e3f
00000010: f43a 843b 4a81 fb3d f3d4 7e3f aafc 933b
00000020: 9734 fd3d 2923 7f3f d4c1 593b fad5 fa3d
00000030: d51d 7f3f fe10 5f3b bdbc fa3d a1d3 7e3f
00000040: a997 943b e24c fe3d 97da 7e3f 1e16 913b
00000050: 31c1 fd3d

network_body.observation_encoder.processors.1.normalizer.running_mean f4 [25]
-0.01933805 0.08379995 -0.02408479 6.6016386e-05 9.577631e-05 -0.01941256 0.08383818 -0.02417485
0.00010138463 9.450264e-05 -0.019488579 0.08386422 -0.024263455 0.00013971695 9.259497e-05 -0.019566063
0.08387776 -0.02435025 0.00018118671 8.9990026e-05 -0.019645 0.08387775 -0.024434436 0.00022592444
8.663139e-05
00000000: d56a 9ebc 4f9f ab3d 774d c5bc 4772 8a38
00000010: 84db c838 1707 9fbc 5ab3 ab3d 560a c6bc
00000020: 759e d438 b82f c638 83a6 9fbc 01c1 ab3d
00000030: 27c4 c6bc fc80 1239 8c2f c238 0249 a0bc
00000040: 1ac8 ab3d 2d7a c7bc f0fc 3d39 07b9 bc38
00000050: 8dee a0bc 19c8 ab3d ba2a c8bc 21e6 6c39
00000060: e0ad b538
