UAV NS for Power Lines Monitoring/Assets/NN models/UAVSS-1999749.onnx (onnx, 96281 bytes, 10 tensors)

59 f4 [21]
000000 f8 6e b6 3d 90 b9 b5 3d c2 f2 d1 3d 87 20 ae 3d
       0.08907884 0.08873284 0.102513805 0.08502298
000010 f5 d0 ac 3d 34 9a c2 3d d8 47 b6 3d ed 5a b5 3d
       0.08438293 0.09502068 0.08900422 0.08855233
000020 d7 4b ca 3d 38 a0 9d 3d 09 6b 9c 3d 4a 45 b8 3d
       0.098777466 0.07696575 0.07637603 0.08997591
000030 da b9 a1 3d 5a 93 a0 3d af cc b9 3d 95 4e b8 3d
       0.078967765 0.07840605 0.090722434 0.08999363
000040 d4 4e b7 3d 3f bc ce 3d b5 e8 b7 3d 6a e8 b6 3d
       0.08950582 0.10094499 0.08979932 0.08931048
000050 a0 e9 cd 3d
       0.10054326

62 f4 [25]
000000 46 9e 45 3e 22 44 ff 3d 47 34 48 3e 1d 89 35 3d
       0.19298658 0.12464167 0.19551192 0.044320215
000010 26 ad 24 3d 62 90 47 3e ed 87 00 3e 4e 12 4a 3e
       0.04020419 0.19488671 0.12551852 0.19733545
000020 44 6a 37 3d a3 79 26 3d 55 9a 49 3e 0c 7a 01 3e
       0.044779077 0.040643346 0.19687779 0.12644213
000030 4b 07 4c 3e d2 5c 39 3d b3 59 28 3d 7f bc 4b 3e
       0.19924657 0.045254536 0.04110117 0.19896124
000040 1b 79 02 3e 3c 13 4e 3e c0 60 3b 3d 79 4e 2a 3d
       0.1274151 0.20124525 0.045746565 0.041578744
000050 f1 f6 4d 3e d2 85 03 3e 5b 36 50 3e 48 76 3d 3d
       0.20113732 0.12844017 0.20333235 0.04625538
000060 f3 58 2c 3d
       0.042077016

action_model._discrete_distribution.branches.0.bias f4 [6]
000000 e0 2d ad 3b 4d 13 25 3d c1 a5 f4 bc 40 94 fc 3c
       0.0052850097 0.04030161 -0.029864194 0.03083241
000010 aa 23 7d 3d 1b af b0 bd
       0.06180159 -0.08627149

action_model._discrete_distribution.branches.0.weight f4 [6, 128]
000000 97 bf 05 3d 72 e2 ce bd 3f 04 97 bd fb a4 e0 3b
       0.032653417 -0.10101785 -0.07373857 0.0068556047
000010 40 20 2f 3c 65 ea 5d bb a6 a1 a1 bd da 03 96 3d
       0.010688841 -0.0033861634 -0.0789216 0.073249534
000020 89 a3 6a bc 5c 16 bd 3c 11 38 18 bd c2 66 df 3c
       -0.014321216 0.02308195 -0.037162844 0.027270678
000030 c0 91 68 3c 20 80 81 bd 68 cd db bc 2a a8 b5 bd
       0.014194906 -0.06323266 -0.026831344 -0.088699654
000040 ca b8 39 bd a1 f8 b0 bd 91 88 97 bd 7b 14 20 bd
       -0.045342244 -0.08641172 -0.07399095 -0.03908203
000050 5f 10 e5 bc 81 60 53 3d 96 10 c6 bb 99 b0 dd bd
       -0.027961908 0.051605705 -0.0060444577 -0.10824699
000060 f6 ed 5b bd 9c 8a 4c 3d 9e 54 58 bd 25 de a9 3b
       -0.053693734 0.049936876 -0.052815072 0.0051839524
000070 3b 56 73 bd 3c c3 84 bc 8d e3 2d 3d b7 f0 a6 bd
       -0.059408408 -0.016206376 0.042453337 -0.081513815
000080 4a bb b9 bd 24 62 20 be e2 c2 78 3c af 0d 3b bd
       -0.09068926 -0.15662438 0.015183182 -0.045667347
000090 f2 39 81 bc 06 56 9e bd 33 a6 7c bd 63 1b ab 3d
       -0.0157747 -0.077312514 -0.061681937 0.08354833
0000a0 93 51 a6 bd f8 7d 6e 3d eb 86 23 bd 67 98 43 3c
       -0.08121028 0.058225602 -0.03992359 0.011938191
0000b0 ad d9 96 bd 51 63 25 3d b4 53 ab bb fe ac 44 bd
       -0.07365737 0.04037792 -0.005228484 -0.04801654
0000c0 8e 1d ff 3c 32 ae e4 3c 74 21 84 bd 78 54 c6 bd
       0.031142022 0.027915094 -0.06451693 -0.0968408
0000d0 9e 90 a6 3d 2d df fc 3c 8d 58 8c bc 3d f3 4b bd
       0.08133052 0.030868137 -0.017132068 -0.049792517
0000e0 c1 f6 ce bd 67 8b 48 3d f6 ab 29 be e0 8a bc bd
       -0.10105658 0.04896107 -0.16569504 -0.09206176
0000f0 7f 58 9e bb 75 f5 4e bd e8 17 91 bd 94 b1 82 3c
       -0.004832327 -0.050527055 -0.07084638 0.015953816
000100 05 96 31 bd a7 67 58 3d ea c6 90 bc f1 35 6b 3c
       -0.04335596 0.052833226 -0.017672975 0.014356122
000110 3b 4a 89 3d ef c8 12 3c 7b 16 50 3d 5a 14 30 bd
       0.067036115 0.008959039 0.05080269 -0.04298816
000120 e7 df 74 bd c4 c2 c2 bc 67 2d ab bd 9b 61 a4 bd
       -0.059783842 -0.023774512 -0.08358269 -0.08026429
000130 fc 1e 95 bd 67 88 00 be 57 be 81 bd 3f 14 0b bd
       -0.072813004 -0.12552033 -0.063351326 -0.033954855
000140 74 60 e0 bc 0f ed be bd a3 10 8e bc 01 90 ca bd
       -0.027389742 -0.09322559 -0.017341917 -0.09890748
000150 03 33 b7 3d 75 d2 10 bd 2f ac 71 bc 02 49 68 3d
       0.089452766 -0.035356957 -0.014750524 0.05671025
000160 a9 0a e5 3b dc b0 c3 bd 80 17 f0 bd e0 cc b1 3c
       0.006989796 -0.095552176 -0.11723232 0.021704137
000170 97 85 8e bd 6f b1 99 bc 81 96 cb bd 61 18 40 3d
       -0.06959074 -0.018761365 -0.09940816 0.04689825
000180 67 82 fa bd 5e c2 4b bd ac bc 88 bc 68 b3 71 3c
       -0.122319035 -0.04974591 -0.016691528 0.014752246
000190 fd 8b 95 bd 15 ff 1f bd bd 73 c8 bd cf 91 c6 bd
       -0.07302091 -0.039061625 -0.097877 -0.096957795
0001a0 7c 2e c2 bd 0d 42 4c bd e5 bc 97 3d fe 8b 38 bd
       -0.094815224 -0.04986768 0.07409076 -0.045055382
0001b0 fa f4 c8 3c da f1 aa bd 66 63 6e 3c 74 4a a9 3c
       0.024530876 -0.08346911 0.014550066 0.020665385
0001c0 d2 83 2e 3d 66 5b 3f 3c 9e 2d 46 bc 94 bb 4f 3d
       0.042606182 0.011679506 -0.012095837 0.050715998
0001d0 cd 07 41 3d 41 d3 45 bc 8d d7 a3 bd b8 19 6a bd
       0.04712658 -0.012074293 -0.080000974 -0.057153434
0001e0 94 28 f3 3c 95 19 a1 bd c5 34 8a 3c 2c d5 25 bd
       0.029682435 -0.078662075 0.016870866 -0.0404865
0001f0 7b fb 68 bd 7f 60 67 bd cb 69 e0 bc d7 58 94 3d
       -0.056880455 -0.05648851 -0.027394196 0.07243507
000200 51 e7 df bc 3b c0 3f be b9 11 0b 3c 4b 3d 8e bd
       -0.02733198 -0.18725674 0.008488112 -0.069452845
000210 93 bc c8 3d 25 82 c3 3c ee 83 2e 3e 12 6b 11 3d
       0.09801593 0.023865769 0.17042515 0.0355025
000220 30 97 6a be 3b ec da 3d 3e 0b a8 3c d3 21 95 bd
       -0.22909236 0.10689589 0.020513173 -0.07281842
000230 2d 25 06 3d b0 20 3a be 3b a6 0b 3e ae 9c b6 3d
       0.032750297 -0.18176532 0.1363763 0.08916603
000240 83 26 53 be 5b 03 21 bd d5 02 82 bd 07 e4 93 3d
       -0.2062016 -0.03930984 -0.063481964 0.07221227
000250 b7 43 1e bc 67 5d e9 bd 83 40 35 3d c2 1f 47 be
       -0.009659699 -0.11394768 0.044250976 -0.19445708
000260 cf 00 11 be 29 bb 1b be 24 2c 11 be 3a f7 95 3d
       -0.14160465 -0.15208115 -0.14176995 0.07322545
000270 7b a4 86 be 04 35 22 bc fc 81 81 3c 9a e1 44 bd
       -0.26297364 -0.009900335 0.015809052 -0.048066713
000280 1c 62 ce 3d 41 a2 ec bd d9 7a 4a 3d b1 8b 6e bc
       0.10077307 -0.11554385 0.049433563 -0.014559672
000290 e9 5b c1 3d ef 79 1b be 6c dd df 3d 17 3a c0 bd
       0.094413586 -0.15183233 0.10930905 -0.0938608
0002a0 80 e9 db 3d 48 0d b8 bd 2a 3b 53 bc e0 59 ea bc
       0.10737896 -0.08986908 -0.012892524 -0.028607309
0002b0 56 e0 8d 3c b7 d7 5f 3b 60 5d b2 3d fb ac dd bc
       0.017318886 0.0034155676 0.08709216 -0.027060023
0002c0 4a 56 1f bd 4e d2 89 3d 7b e9 31 3d cc 97 00 be
       -0.03890065 0.067295656 0.043435555 -0.12557906
0002d0 9a de d0 ba 0d 89 d8 3d fd d9 95 be 3b 43 78 3d
       -0.0015935481 0.10573015 -0.29267874 0.06061099
0002e0 09 f3 fe 3d bf 13 12 3e 18 3a 20 be f8 3e 0e 3d
       0.12448699 0.14265345 -0.15647161 0.03472802
0002f0 27 3d b0 3d 2a 56 c0 3d b3 4f 20 3b 32 05 b7 bc
       0.08605414 0.093914345 0.0024461567 -0.022341345
000300 86 2a 42 3d 88 e2 5c 3c 87 bb 9f 3d c0 ec 84 be
       0.047403835 0.013481744 0.0779944 -0.25961876
000310 b0 0d b0 bd 4b fa 7b 3e 32 89 cd bd e0 3e 1b 3d
       -0.08596361 0.24607198 -0.100359336 0.03790176
000320 cb ec 06 3e dd 3d 67 3c b6 64 f6 3c 1c 9f 1f be
       0.13176267 0.01411387 0.03007732 -0.15588039
000330 c6 18 68 be 26 58 ac be e2 e7 33 bc bc 04 31 be
       -0.226657 -0.33661002 -0.010980578 -0.17286962
000340 bc c9 19 3e 5a 05 d8 bc b3 8f 0d be 3f b6 30 3d
       0.15018362 -0.02636974 -0.13824348 0.043142553
000350 2d 6a 5b bd b2 e4 3d be 7a 26 d8 bd 37 a6 2c be
       -0.053568054 -0.18544272 -0.10554214 -0.16860281
000360 58 05 87 bd 31 fe 53 3d 59 29 78 be ac ac 2a 3d
       -0.06592816 0.051756088 -0.24234523 0.04166858
000370 dd 70 95 3d c1 e0 87 3d f9 07 09 3e f9 4c b5 3d
       0.072969176 0.06634665 0.13381948 0.08852572
000380 ac 4f 45 be e8 86 bc bc c1 ba 46 3d d0 d9 94 bc
       -0.19268674 -0.023013547 0.048517946 -0.018170267
000390 5c 1b 0f be 60 5a ab 3d 8e 49 d7 bd 34 5b 2c 3e
       -0.1397528 0.08366847 -0.10512076 0.16831666
0003a0 50 eb 85 bd db 23 cc 3d c9 0d dc 3c a4 cf e6 bd
       -0.06539023 0.099677764 0.026862042 -0.11270073
0003b0 be 53 0a 3e 90 94 c3 bc bf 55 34 3c fe 1f 17 3c
       0.13508508 -0.023874551 0.011006772 0.009223936
0003c0 4e 57 83 be b1 c8 4d bc e1 cf 80 bd 52 76 00 be
       -0.25652546 -0.012560056 -0.0628965 -0.12545136
0003d0 1b e1 ef 3b 5c 47 91 be 3c 2a 65 be 2e 96 4c bd
       0.007320536 -0.28374755 -0.22379392 -0.04994791
0003e0 ce 5d 31 3d bd 59 58 3d 98 c8 a1 3d a9 96 b1 bd
       0.04330235 0.052819956 0.07899588 -0.08671314
0003f0 74 c5 3d 3d fa b2 2c be 80 f6 b4 bc 47 a2 96 3d
       0.046330884 -0.16865149 -0.022090197 0.07355171

network_body._body_endoder.seq_layers.0.bias f4 [128]
000000 db 70 ce 3d 52 c3 06 be bc ca a1 bd ca 8b 13 3e
       0.10080119 -0.13160446 -0.07899997 0.14408794
000010 f8 6c ad 3d 5d 13 6a bd 11 ed 5b bd 01 1d 2a be
       0.0846805 -0.057147373 -0.05369288 -0.16612627
000020 5d 81 02 3d 97 99 a8 3d 76 3f 01 3e 46 cb 0c bc
       0.03186165 0.0823242 0.12621865 -0.008593386
000030 1e 1d 03 be 67 aa 03 3d 3c 7e 5a be 97 36 d7 3b
       -0.12804076 0.03214493 -0.21337217 0.006567787
000040 31 b2 13 bd cb 87 0a 3e 1e 14 5f 3d 84 63 f3 3d
       -0.03605861 0.13528363 0.054462545 0.118842155
000050 31 3e ee bc 97 93 fe 3d b4 65 6e 3d e7 12 55 3d
       -0.02908239 0.12430494 0.05820246 0.05201998
000060 d3 5f 74 3d 72 0a 25 3e e3 ec 2f bd 1e f4 94 bc
       0.059661698 0.16117266 -0.042950522 -0.01818281
000070 04 b3 9d 3d cb 34 ab bd ea 81 25 3d 34 23 4e 3d
       0.0770016 -0.08359679 0.0404071 0.05032654
000080 df a7 df 3d fd 73 f2 3d d2 f8 4e 3d 21 a7 d4 bd
       0.10920691 0.11838529 0.050530262 -0.1038344
000090 84 21 c2 bd a3 d8 02 3e cc 15 10 3e 64 be 09 3d
       -0.09479049 0.12777953 0.14070815 0.033628836
0000a0 3b 49 f9 bc 8d 8a af bc 41 69 3a be 08 9f 3f 3e
       -0.030430427 -0.02142837 -0.18204214 0.1871301
0000b0 33 3d 92 bd e2 b7 b2 3d 9b 72 99 3d d0 fd 71 bc
       -0.07140579 0.08726479 0.074925624 -0.014769986
0000c0 71 a7 aa 3d d6 6f e5 3c de 28 37 3d f2 c8 6e 3d
       0.08332718 0.02800743 0.04471671 0.058297105
0000d0 a7 1d f1 bd cb 4e 49 3e 12 67 b7 3d ac 02 35 be
       -0.11773234 0.19658963 0.08955206 -0.176768
0000e0 16 fd 10 3d 4a c5 1b bc 67 cf 76 3d b1 42 0c 3e
       0.03539761 -0.009507487 0.060256388 0.13697316
0000f0 47 83 76 3d e4 1b 9e bd 57 2a 32 be ea 63 e7 bd
       0.06018379 -0.077201635 -0.17398964 -0.11298354
000100 80 f4 82 bc 99 59 9e 3d d3 e2 3b bc 2e b2 23 3d
       -0.015985727 0.07731933 -0.011467653 0.039964847
000110 9d 3a 30 3d 89 b7 f4 3d 6f 51 13 3d c5 fb 1c 3b
       0.043024648 0.11949069 0.035966333 0.0023953777
000120 8b a5 fc 3c 07 3b 96 3d 5f da b0 3d dc 4f 5f 3d
       0.030840656 0.07335477 0.08635401 0.05451952
000130 4f 3c 98 3c 44 08 14 3d 41 3e 93 bc 78 1e 81 3d
       0.018583445 0.036140695 -0.01797402 0.063046396
000140 5b 2f d3 3c c3 bb d4 3b bb a1 ce 3d 52 a2 05 be
       0.025779417 0.0064921095 0.100894414 -0.13050202
000150 ab d8 03 bc 9e 30 fc 3b e4 0f ad 3c 9c b8 a6 bd
       -0.008047263 0.0076962253 0.021125741 -0.0814068
000160 67 0f b2 bd db bb b1 3d 58 8c f3 3b 27 dc b7 3d
       -0.08694344 0.08678409 0.0074325018 0.089775376
000170 bc ff 04 3e b0 b8 de 3d a0 45 03 3e 71 34 78 3d
       0.1298818 0.1087507 0.12819529 0.060596887
000180 81 42 3a be 33 2e ea 3c b1 96 a4 ba 90 03 4f bd
       -0.18189432 0.028586483 -0.0012557117 -0.050540507
000190 1c 49 22 3d a5 5a f4 bd fa 14 46 3d a7 ff b3 3d
       0.039620504 -0.119313516 0.04835985 0.08788996
0001a0 a5 48 a3 3c 89 b3 00 3e 3a a0 a8 3c 23 33 3d 3b
       0.0199321 0.12568487 0.020584214 0.0028869591
0001b0 0f f2 31 3e 2a 28 10 b9 56 04 a9 bd 35 56 83 3c
       0.17377494 -0.00013747872 -0.0825278 0.016032318
0001c0 ca 0f 33 be 1f cf cf bb d4 86 d1 bd 61 8f 01 be
       -0.17486492 -0.0063418294 -0.102307945 -0.12652351
0001d0 0b 77 aa 3d c0 0f ce 3d 68 e5 14 3d 89 15 9c 3d
       0.08323487 0.10061598 0.03635159 0.07621295
0001e0 f3 ba 03 3e 94 73 df 3c 47 aa 18 be 66 61 c4 bd
       0.12864284 0.027276792 -0.14908706 -0.0958889
0001f0 04 72 c4 3c 35 69 74 3d 7c 62 f1 3d 55 20 96 be
       0.023980148 0.059670646 0.117863625 -0.29321542

network_body._body_endoder.seq_layers.0.weight f4 [128, 46]
000000 4e 1c 31 bd 11 0b 7e bd 3d bb 7a bc 66 87 57 bd
       -0.043239884 -0.062022272 -0.01530343 -0.05261936
000010 d9 82 59 3d e5 54 80 3e d9 d0 d5 3e 34 23 62 bc
       0.0531033 0.2506477 0.417609 -0.013802338
000020 47 c9 d0 bd 39 5f eb 3d b6 2f fe 3d d9 0b e4 3d
       -0.101946406 0.11492772 0.12411444 0.11135072
000030 90 d5 91 bd fe 4a 7a bd 1b 33 16 bd c4 d1 84 3d
       -0.07120812 -0.061106674 -0.03666983 0.06485322
000040 3e e7 12 be d4 bd e8 bd ea 89 e0 3d 58 b4 11 be
       -0.14346024 -0.11364332 0.10963805 -0.14228952
000050 2d 9e 26 be 8c d8 e6 3d 21 39 e7 3d 33 66 ba 3d
       -0.16271277 0.11271772 0.11290193 0.09101524
000060 8d be 9a bd 9b 3d 8e be 69 0a 78 3d ec fc df 3d
       -0.07555876 -0.27781376 0.060556803 0.10936913
000070 14 25 59 3e f8 3b 72 3e b0 b0 05 be 2a 96 0f 3e
       0.2120555 0.23655689 -0.13055682 0.14022127
000080 24 dd 6c 3e b0 fb 13 be 77 2f 4c be 66 11 cc be
       0.23131233 -0.1445148 -0.19939981 -0.39857024
000090 f7 0b 61 3d a1 3a cd 3c 0d 4c 6c 3d 6e 0b 42 3e
       0.05494305 0.02505237 0.057689715 0.18949673
0000a0 58 66 87 3e dd 16 4e be 1b 6b 47 3d e8 13 27 3e
       0.2644527 -0.20125909 0.048686128 0.16316187
0000b0 68 25 5b be 4c da 93 3e f0 33 0e 3e 7d 5c 01 3e
       -0.21400988 0.28877485 0.13887 0.12632938
0000c0 ed 1a 39 3e 60 19 a3 3c d7 67 00 3e af c6 bd bd
       0.18076678 0.01990956 0.12539612 -0.092664115
0000d0 fa 93 00 be 4d 9d d7 bd 8e f6 2d 3e c5 6a 51 bd
       -0.12556449 -0.105280496 0.16988584 -0.051127214
0000e0 d1 b7 6d bd fc 1b 95 3e d3 ff cf bd 9b 4d 3d bc
       -0.05803663 0.29122913 -0.101562165 -0.011554147
0000f0 9a 35 26 3d 87 6e 2a 3d db eb e3 3b 80 91 52 be
       0.040578462 0.041609313 0.0069556064 -0.20563316
000100 a6 78 5c 3d 2e b6 50 bc 4d df 26 3e b1 f0 f4 3d
       0.053825997 -0.0127387475 0.1629612 0.11959971
000110 23 a9 bd 3d e4 5e ac 3e 42 8c 51 3e b8 07 20 bd
       0.09260776 0.33666146 0.2046366 -0.03906986
000120 12 7a 06 3e ca 71 2c 3e 06 fb 40 3c 44 8e 8e 3d
       0.13132504 0.16840282 0.011778599 0.06960729
000130 88 2a 29 3c e1 be df bb c4 12 9e bd 1b e6 ea 3b
       0.010325082 -0.0068281745 -0.07718423 0.007168544
000140 ea bc ff 3d 61 0a 07 3d 72 0c 15 bc 5a 7d d7 be
       0.124872044 0.032968882 -0.0090972055 -0.42087823
000150 0e 8f 8c 3d 52 67 12 be 07 2b 71 3d 81 71 c7 bd
       0.06863223 -0.14297226 0.058878925 -0.09738446
000160 89 f1 d7 be 2e 26 1c bd 95 2b 71 be 4f c7 a8 3d
       -0.42176464 -0.03812235 -0.23551781 0.0824114
000170 68 29 c6 3c 14 f5 7b bd 99 d1 46 3c cc 5f 48 bd
       0.024189666 -0.06151302 0.012134933 -0.048919484
000180 35 24 03 be b6 8f 9d 3d a4 b5 6e 3e e7 20 03 3e
       -0.1280678 0.07693426 0.23311478 0.1280552
000190 5f b6 cb 3d 42 45 40 be eb 90 01 3e ea a9 1d bc
       0.09946894 -0.1877642 0.12652938 -0.00962303
0001a0 4e d1 30 be e3 ee 29 3e 2c ce 45 bd 6e c1 f4 bd
       -0.17267343 0.16595034 -0.048292324 -0.11950956
0001b0 6b fd 32 be 1c 80 07 3f 2c 0e 3d 3e 66 9d 2b be
       -0.17479484 0.52929854 0.18462437 -0.16759261
0001c0 e7 47 68 3e b3 2b e4 ba c9 d0 94 3d 63 77 ad bc
       0.22683679 -0.0017408043 0.07266385 -0.021175092
0001d0 7f eb 34 3d 1e 68 95 3d 1a 3d 01 3e fd 29 26 bd
       0.0441699 0.072952494 0.12620965 -0.040567387
0001e0 0f 6a 43 be 41 33 e6 3c 8a 16 52 3e 3d 62 00 be
       -0.19083427 0.028100612 0.2051641 -0.12537475
0001f0 26 17 09 3c b7 c9 ad 3e 22 93 f4 bd 14 fc 27 be
       0.008367335 0.3394296 -0.11942126 -0.16404754
000200 a9 a7 b0 bd 86 22 68 3e b2 16 b4 3d 7c 75 43 3d
       -0.08625729 0.2266942 0.08793391 0.047719464
000210 c9 16 54 3c ff 15 06 bd 61 b1 1a be c2 74 a9 3e
       0.0129448855 -0.03273582 -0.15106727 0.33096892
000220 e5 f3 fd bd 11 66 08 be 92 9a e2 bd 98 dc 52 3b
       -0.12400035 -0.13320185 -0.11064638 0.003217494
000230 24 cd a3 bd d5 c7 a7 bd 14 7e 2d be e1 b3 2a be
       -0.07998112 -0.08192412 -0.16942626 -0.16670181
000240 a8 fa ab 3d 11 a9 9d 3c 68 ad 2d be bb 20 84 bd
       0.08397418 0.019245656 -0.1696068 -0.06451555
000250 bc cc a4 3d e9 6e 2d be c5 1a c9 3b 79 d7 01 bf
       0.080468625 -0.1693684 0.0061372244 -0.5071941
000260 b8 0c 1b 3e 9d 3f a1 3e 36 12 ab be 60 06 4f be
       0.1514157 0.31493846 -0.3341233 -0.20217276
000270 4e 0c 89 bd f5 3c 81 be 11 ba f5 bd e7 47 5b bc
       -0.066918 -0.2524182 -0.1199838 -0.013383842
000280 b4 e6 84 3b bb 65 10 be 01 3a 53 bc 2f 4b 70 3d
       0.0040558223 -0.14101307 -0.012892247 0.05866545
000290 91 3d 17 be 83 9a 18 3e 4d a5 50 3d e2 e4 56 be
       -0.1476958 0.14902692 0.050938893 -0.2098575
0002a0 a3 b5 86 be 9f bf 82 bd c2 06 87 3c 9f d1 55 be
       -0.26310453 -0.06384205 0.016482715 -0.20880745
0002b0 21 9e ea bd 26 2f 05 be 42 57 64 3e 01 92 0e 3e
       -0.11455942 -0.13006267 0.22298911 0.13922884
0002c0 4e 3b d2 3d 42 d4 65 3e a6 e0 1b be e2 6c d5 3e
       0.10265218 0.22444251 -0.15222415 0.41684633
0002d0 a3 68 8d 3d 65 8d 92 3b 7b 54 f4 be e3 5e 8f bd
       0.069047235 0.004472422 -0.47720703 -0.0700052
0002e0 67 8e 7e 3d 0c 92 9b 3d 4d 7a e1 bd b8 c9 c9 3e
       0.062147524 0.075962156 -0.11009655 0.39411712
0002f0 28 20 e1 be e3 9e 83 3e 22 03 44 bd 97 35 52 3d
       -0.43969846 0.25707158 -0.04785455 0.05132064
000300 95 9e 80 be 38 4b aa bc c9 08 8d 3e 6d 45 39 bd
       -0.25120988 -0.02078782 0.27545765 -0.045232225
000310 90 19 8e 3d 3c e3 70 be 50 94 1d be b7 6c 7f bd
       0.069384694 -0.23524183 -0.15388608 -0.062359538
000320 3a 98 08 be 63 84 5e 3d a7 d9 fb 3d e9 55 38 3e
       -0.1333932 0.054325473 0.12297373 0.18001522
000330 4e 63 0d bf 41 d4 0a 3e 80 f0 e3 bd b4 16 05 be
       -0.5522965 0.13557531 -0.11129856 -0.12996942
000340 1a 1f 6b bd fa 65 44 3e 08 91 08 be 7d 03 84 3d
       -0.057402708 0.19179526 -0.13336575 0.06445978
000350 d2 14 4a be 62 5a bf bb 4e ca 24 be 8b a1 51 be
       -0.19734505 -0.005839632 -0.16092798 -0.2047178
000360 2c 54 ab 3e 89 a3 0e 3d 8a c9 dc bd d2 49 0b 3e
       0.33462656 0.034823928 -0.10780628 0.13602379
000370 16 d6 82 bd eb 7d 27 3e 36 23 72 3d 23 ee 65 be
       -0.0638849 0.16356628 0.05911561 -0.22454123
000380 c0 70 79 3e 69 73 75 be d5 a1 c4 3d d5 81 f6 bd
       0.24359417 -0.23969807 0.096011795 -0.12036482
000390 cd 5f 06 bf b5 59 07 3e 22 09 9d be fb 9d f3 3d
       -0.5248993 0.13217814 -0.3067103 0.11895367
0003a0 ff e4 3c bb bf c0 13 3e c6 b6 99 3d aa c9 12 3d
       -0.0028823016 0.14428996 0.075055644 0.035836853
0003b0 e3 3c fc 3c f3 61 c1 bd f0 1e bb bc e1 eb f8 bd
       0.030790752 -0.094425105 -0.0228419 -0.12154365
0003c0 73 f5 3a 3d db 81 48 be d9 50 d0 3e fd 7e 85 bc
       0.045644235 -0.19580786 0.40686682 -0.016295904
0003d0 c0 e5 50 3e fc 86 af 3d a3 9d 1d 3e 39 c4 42 3e
       0.20400143 0.08570668 0.15392165 0.19020166
0003e0 cd 73 03 be 48 b3 b8 bd 02 b2 c3 bd 69 eb 2f bd
       -0.12837143 -0.0901857 -0.09555437 -0.042949114
0003f0 b4 72 8f 3d 90 32 07 3e a8 47 3d 3e da 79 71 3e
       0.070043 0.13202882 0.18484366 0.23581639

network_body._body_endoder.seq_layers.2.bias f4 [128]
000000 cd 3c a7 bb 8e b4 b4 3b 2b 9c c7 bd 80 eb 85 3d
       -0.0051036836 0.005514688 -0.097465836 0.06539059
000010 2c d8 cd 3d 60 64 c8 bc 42 fa 2a 3d eb b3 b3 3d
       0.10050997 -0.024461925 0.04174257 0.08774551
000020 54 20 d8 3d e1 d3 03 3e 8d 60 53 bd c0 a6 a4 bd
       0.10553041 0.12873794 -0.05160575 -0.080396175
000030 8c cd 8f 3b 6c e9 af 3d 46 93 98 3d f6 13 39 bb
       0.004388517 0.085894436 0.07449965 -0.0028240657
000040 4f 05 47 3d 60 dc 54 bd 39 ee 58 bd cc 6d 8b 3d
       0.048589047 -0.05196798 -0.05296156 0.068080515
000050 d2 f7 ca bd 7b c1 70 bc b1 fa 6b 3d 11 24 3b 3d
       -0.09910549 -0.014694567 0.057612125 0.045688692
000060 fc 2a 32 3d 7c 13 29 3d 6f 10 9c 3c 78 d9 f1 3d
       0.043498024 0.041278347 0.019050805 0.11809057
000070 eb c5 eb 3d ea 8c 8f bd 4a 62 8d 3d e4 83 b0 3d
       0.11512359 -0.07009299 0.06903513 0.08618906
000080 22 18 c1 3b 0c ef a5 bc d4 8c 99 3d 14 a0 07 be
       0.0058927694 -0.020255588 0.07497564 -0.13244659
000090 02 be 6d 3d e6 97 62 bd cd 6b d7 3c e6 d5 1a 3d
       0.058042534 -0.055320643 0.02629652 0.037801646
0000a0 85 ee 71 3d 11 34 1b 3e b1 13 30 3d 67 95 a0 bd
       0.05906536 0.1515658 0.04298753 -0.07840996
0000b0 8c ab cd bc 89 2b c1 3d 59 56 10 3d 40 af b2 3c
       -0.025106214 0.09432132 0.035238598 0.021812081
0000c0 72 55 2d 3e fb a4 e4 3d d8 4f 57 3c 48 b3 08 bd
       0.16927126 0.1116428 0.013141595 -0.0333741
0000d0 b4 42 60 3c b5 59 14 3e cf 06 74 3d 52 95 1b 3d
       0.013687778 0.14487346 0.059576806 0.0379842
0000e0 86 d2 b3 3d 5e 76 07 3e bd cf b3 3c 9c e1 10 bd
       0.087803885 0.13228747 0.021949643 -0.035371408
0000f0 70 f4 13 bb 38 14 58 3d c7 80 cf bb 1f f9 e4 3d
       -0.0022576116 0.052753657 -0.00633249 0.111803286
000100 ad 25 7f 3c 96 d1 11 3d 61 56 86 3d f4 e1 98 3d
       0.015572947 0.035600267 0.06559444 0.07464972
000110 36 6b ec 3d 23 8e 0b 3e f2 ab 3c bd 84 e2 30 bc
       0.11543886 0.1362844 -0.046062417 -0.010796193
000120 a1 b4 09 3e bf 03 fb 3c 5c 32 9c bc 18 91 4e 3d
       0.1344781 0.030641435 -0.019066982 0.05043134
000130 5b 3f 8f 3d fa fd d8 3d 5e d2 ca bd 22 9c f6 3b
       0.06994506 0.10595317 -0.099034056 0.0075259367
000140 91 5e 08 3e 27 52 95 bd 6f 3c 28 3d 10 40 4c 3c
       0.13317324 -0.0729106 0.04107326 0.012466446
000150 10 cf 1b 3e f0 47 ae 3d c7 63 f2 bd f1 b1 2f 3e
       0.15215707 0.08509815 -0.11835437 0.17157723
000160 97 be 2a be 0f c8 0c 3c ef c7 e3 3d 2d 0b b8 3d
       -0.16674267 0.00859262 0.11122119 0.089865066
000170 ac ba 80 3c 0f d0 b1 3c a9 83 a3 3d 99 98 09 3d
       0.015714012 0.021705655 0.079840966 0.033592794
000180 c8 cf 83 3a 1f 46 13 3c 91 f5 25 bd fc ae 0f bc
       0.001005643 0.008988886 -0.040517393 -0.008769747
000190 10 bc 0e bd 78 3c 1c 3d af 1a 81 3c e3 8c ab 3d
       -0.03484732 0.038143605 0.015759794 0.083764814
0001a0 e3 72 d0 3d b0 9e fb 3d 39 46 5e 3e 36 8d e2 3b
       0.10178163 0.122861266 0.21706475 0.0069138063
0001b0 f5 51 25 3e 79 e8 b5 bc f7 8e 88 3c 31 69 a3 3d
       0.16144545 -0.022205578 0.016669733 0.07979048
0001c0 a5 f6 50 bb 5d 63 8d 3d ea 82 29 3d 50 1a 73 3d
       -0.0031885293 0.06903718 0.041384615 0.059351265
0001d0 31 41 75 3e c5 2a 99 3d 98 58 fa 3c d3 ff 6a bd
       0.2395065 0.07478861 0.030559823 -0.05737288
0001e0 0e 1d d1 bb 37 fb e8 3c f6 a5 b0 3d 5e 2f aa bd
       -0.0063816374 0.028440101 0.086254045 -0.08309816
0001f0 58 43 12 3e e8 ad a0 3d c9 07 f7 bc 4f 3d da 3d
       0.14283502 0.0784567 -0.03015508 0.10656225

network_body._body_endoder.seq_layers.2.weight f4 [128, 128]
000000 9c e9 d1 bc 25 58 50 3e 02 66 a2 3d 21 da 3e bb
       -0.025624089 0.20346124 0.07929613 -0.0029121714
000010 f2 82 7d 3c 3b 2e 12 bd 95 b2 8f bd c5 5c 38 3c
       0.015473114 -0.03568862 -0.07016484 0.011252587
000020 aa ea bf 3b b3 ff b6 bd 0f c9 1e 3e 32 a0 b7 bb
       0.0058568316 -0.089354895 0.15506385 -0.0056038136
000030 8f 64 4d bc 2d ac 12 3e 9a f8 e9 3b cd 5f 51 3d
       -0.012536182 0.14323492 0.0071402313 0.051116753
000040 e7 11 a9 3d 60 a2 c6 bd 4d 53 00 bc d1 ef 9b 3d
       0.08255368 -0.09698939 -0.00783236 0.07614101
000050 4e fe d2 bd 4b 3d 95 bc 6e 8a ab 3d f2 6c a5 3c
       -0.10302411 -0.018217703 0.08376013 0.02019355
000060 58 c7 39 be 35 a8 29 3e 7b c3 e6 ba 63 0c 8d 3d
       -0.1814245 0.16568072 -0.0017605865 0.06887128
000070 f0 46 d6 3d f5 64 11 3e 04 d6 25 3d 05 97 f0 3c
       0.10462749 0.14198668 0.040487304 0.029368887
000080 95 69 4c 3e ce 55 33 3d b0 2b 1b be 6b c7 cb 3d
       0.19962151 0.043783 -0.15153384 0.09950145
000090 19 de 01 be 4a bd cb bc e5 c3 a4 bd 1e f4 b4 3a
       -0.1268238 -0.024870533 -0.080451764 0.0013805663
0000a0 66 af 5f 3e b7 a2 cc 3d f9 ee 13 3d b5 ff dc bd
       0.21844253 0.09991973 0.036116574 -0.1079096
0000b0 b3 3f 0e 3e 30 57 dc 3d fa 84 ca 3d 58 d7 b6 3d
       0.13891487 0.10758817 0.098886445 0.08927792
0000c0 ee b6 86 3e 4c a9 1e 3d 7e 76 ca 3d 3a 60 af 3d
       0.2631144 0.038735673 0.09885882 0.08563276
0000d0 27 3c c6 ba 7c 4c 52 bd 09 2d d8 bc 32 b9 0b 3e
       -0.0015124128 -0.051342472 -0.026388662 0.13644865
0000e0 fc 48 81 3d c4 89 0f 3e ee 19 07 3e 8e c0 9e bc
       0.06312749 0.14017397 0.13193485 -0.019378927
0000f0 af 39 81 bd a1 66 22 3c 38 11 ef 3d d6 60 8f bd
       -0.063098304 0.009912164 0.11673206 -0.07000892
000100 36 b8 b8 3d 7e c5 af bd 3a c3 33 3d c0 76 a1 be
       0.090195104 -0.085825905 0.043887354 -0.31535912
000110 d3 82 4b 3c 28 95 1a bd 31 a6 0c be ef 59 43 3c
       0.012421328 -0.037739903 -0.13735272 0.011923297
000120 f4 93 90 bd 39 8f 36 bd 3c 85 bd bd 1a 2e 39 be
       -0.0705947 -0.04457018 -0.09253928 -0.18083993
000130 c5 b0 9a 3d 02 c6 c7 3d 88 c3 00 3d 35 1d f6 3d
       0.07553247 0.09754564 0.031436473 0.120172895
000140 27 9c 04 be fc 07 03 bd 88 83 6b bc 80 86 b7 3d
       -0.12950192 -0.031990036 -0.014374621 0.08961201
000150 ea 03 8a bd 61 b8 43 be 27 a9 04 3c 0e 23 41 be
       -0.06739028 -0.19113304 0.00809697 -0.18861029
000160 48 52 39 bd cf 63 3c 3e f4 02 fd 3c 8b 39 e3 bc
       -0.045244485 0.18397449 0.030885197 -0.0277374
000170 4c 02 6b bd 89 0b 20 be 66 e1 ce bd 5e 32 d7 bc
       -0.057375237 -0.156294 -0.10101585 -0.026269134
000180 ea 79 9d bd a5 f3 70 be e8 d2 ff bc 02 c6 79 bd
       -0.07689269 -0.23530443 -0.031228498 -0.06097985
000190 54 f1 2f be 56 4c 66 3d 6d d0 c3 bd d4 2c 3f 3e
       -0.17181903 0.056225143 -0.095612384 0.18669444
0001a0 79 b7 8f 3c ba b9 07 3e 00 0b 00 be 4c 71 cd 3c
       0.017543541 0.13254443 -0.12504196 0.025078438
0001b0 c0 d9 ad 3c 5d 90 00 3e c7 ca a8 3d bc 06 d3 3c
       0.021221995 0.1255507 0.08241802 0.025760047
0001c0 cf ad 83 3d 71 8d 09 3c 4a 95 a9 3d 32 3f 02 3e
       0.06429636 0.008395539 0.08280428 0.1271942
0001d0 37 e8 96 3e 8f d8 99 3a 7d 7c 6f be 88 00 41 3d
       0.2947404 0.0011737513 -0.23387332 0.047119647
0001e0 df 26 e7 3c d3 55 df 3d 6b 5e 0f be d7 7a cb 3d
       0.028216777 0.109050415 -0.14000861 0.09935539
0001f0 fa 86 5f 3d 36 60 54 3d 38 c9 14 be 77 05 e7 3c
       0.054572083 0.051849566 -0.14529884 0.028200848
000200 8c 30 21 be 3a d6 9b bd 8a f6 92 3d a4 39 66 be
       -0.15741175 -0.0760922 0.0717593 -0.22482926
000210 f5 e2 85 bd 8c 3f 50 3d 9d 4d d3 3d f2 36 be 3d
       -0.06537429 0.050841853 0.10317538 0.09287824
000220 49 46 1c 3e de 88 bb bc 3f d0 9a bc 10 21 1d 3d
       0.15261187 -0.022892412 -0.018898128 0.03836161
000230 e2 21 3a 3d 60 8a 4c bb 1d 33 af bd 37 30 93 3d
       0.04544247 -0.0031210408 -0.08554671 0.071869306
000240 10 82 88 be f3 e5 d6 bd 8d 5c 5d 3e 41 0e 3e 3d
       -0.2666173 -0.10493078 0.21617337 0.046400312
000250 a9 8c 8c bd 91 2a 01 3e f9 2e 07 bd f4 30 ee bd
       -0.06862766 0.12613894 -0.03300378 -0.11630431
000260 17 5e 5e bc aa e1 8c be 68 36 5d 3c 00 50 6f be
       -0.013572237 -0.27515918 0.013501741 -0.23370361
000270 74 5e 3a 3d 7e e0 38 be ab 71 4f 3e d4 50 d9 3d
       0.045500234 -0.18054387 0.20258205 0.1061112
000280 50 1c aa 3d 0a 0a ae 3b 4d 93 21 3c 2a be 06 bd
       0.083061814 0.0053112553 0.009861779 -0.0328962
000290 0e 19 af bd ce a4 ef 3b 6b c6 e3 3d 98 17 32 be
       -0.08549701 0.0073133474 0.111218296 -0.17391813
0002a0 84 55 c3 3c 7a 57 2c 3d ff 5b d2 bd 3e af 8a 3c
       0.023844488 0.04207561 -0.10271453 0.016929265
0002b0 66 d5 a1 39 b3 55 8e 3d 51 53 3e be 13 47 58 3e
       0.00030867307 0.069499396 -0.1858647 0.21120863
0002c0 53 1f 95 3b 9d 3c 5d bb 98 fd 00 be 83 9d 59 3d
       0.0045508533 -0.0033758052 -0.12596738 0.05312873
0002d0 06 c7 9c bd 51 9e 50 3d e0 d9 07 3d 55 cf dc bc
       -0.07655148 0.050932232 0.033166766 -0.026954332
0002e0 9f 78 99 bc 23 39 02 3d 79 8d dd 3c 47 5b f2 3d
       -0.018734274 0.03179277 0.027044998 0.11833816
0002f0 9d 66 81 3e 4c 4a 56 be 84 08 19 be 25 7a 66 3d
       0.252736 -0.2092678 -0.14944655 0.05626883
000300 f3 3e d2 bd 47 20 3a 3b a0 c7 7d 3d 25 35 de 3c
       -0.10265913 0.0028400586 0.061957955 0.02712495
000310 50 20 14 3d f4 92 63 be 18 74 44 be 8c 98 06 be
       0.036163628 -0.22224027 -0.19184911 -0.1314413
000320 1f cb 3b 3e 0a 56 66 bd 0e f6 9c 3d 7e dc 0e bd
       0.18339203 -0.056234397 0.07664119 -0.034878246
000330 c7 9f ac 3d cb 94 7a bc b7 4b c1 bc a9 88 34 bd
       0.084289126 -0.015294264 -0.023595674 -0.04407564
000340 fe cf b0 bd c6 89 d8 bd 35 e7 62 3d 5e b7 03 3d
       -0.08633421 -0.10573153 0.055396277 0.032157294
000350 c0 fc ac bd 4d 1c aa 3d 12 97 74 be aa b7 de bc
       -0.08446646 0.08306179 -0.23885754 -0.027187187
000360 03 d5 23 be 40 f3 3b 3e 46 84 a8 3d 0f 17 92 bd
       -0.15999226 0.18354511 0.08228354 -0.07133304
000370 af 84 30 3e 2f 24 87 be cc e0 96 bd 46 a0 a9 ba
       0.17238115 -0.26394793 -0.07367095 -0.0012941442
000380 cf b4 e6 3c 3d 2c 17 be aa 8d 49 bc 9b 99 c3 bd
       0.028162388 -0.1476297 -0.012301842 -0.09550782
000390 a9 fb db 3c 29 18 6b 3d c9 a5 1a 3e 3a 88 dd bd
       0.0268534 0.057396088 0.15102305 -0.10816999
0003a0 7a 92 73 3d 71 d3 46 3d c2 07 34 3e 15 96 d2 bd
       0.059465863 0.04854149 0.17581084 -0.10282532
0003b0 a2 3c 99 3c eb 64 2e 3d 32 ca b9 3d 79 99 ec 3c
       0.01870567 0.04257671 0.09071769 0.028881775
0003c0 9a c1 d6 bd 55 fb 1d 3c 66 f2 ff bd ac e3 e5 bd
       -0.10486145 0.009642442 -0.12497406 -0.112250656
0003d0 96 81 98 bd a6 05 81 bd 79 25 86 bb 3d d3 17 be
       -0.074465916 -0.062999055 -0.0040938226 -0.14826675
0003e0 b5 1c 80 3d 63 d9 b3 3d df d9 30 be e2 ad 9c 3b
       0.062554754 0.087816976 -0.17270611 0.0047814706
0003f0 60 38 c6 3c f2 fe 06 3e 64 42 dd 3d a6 09 b0 bb
       0.024196804 0.13183191 0.10803679 -0.005372244

network_body.observation_encoder.processors.0.normalizer.running_mean f4 [21]
000000 c9 f3 7d 3f 0a 06 02 3c 01 99 07 3e d5 22 7e 3f
       0.9920011 0.00793601 0.1324196 0.992719
000010 ec fd ea 3b 08 b8 04 3e a2 f4 7d 3f a4 7d 01 3c
       0.007171383 0.12960827 0.99201405 0.00790349
000020 fd 3a 05 3e 86 79 7e 3f ec 41 c0 3b b0 c2 03 3e
       0.13010783 0.9940418 0.0058672335 0.12867236
000030 cd 64 7e 3f d5 ad ca 3b 9a 6a 03 3e e2 e8 7d 3f
       0.9937256 0.006185273 0.12833634 0.99183476
000040 27 51 04 3c 4d 32 07 3e 43 eb 7d 3f 59 bc 03 3c
       0.008075989 0.13202782 0.99187106 0.008040511
000050 9e e9 06 3e
       0.13175055

network_body.observation_encoder.processors.1.normalizer.running_mean f4 [25]
000000 15 41 a0 bc d3 f0 ac 3d ab 60 d8 bc 9f 45 d5 38
       -0.019562284 0.08444371 -0.026413282 0.000101695994
000010 e0 df 46 39 3b 41 a1 bc 97 e2 ac 3d 80 aa d9 bc
       0.00018966151 -0.019684425 0.08441656 -0.026570559
000020 96 b2 35 39 66 4f 44 39 b9 46 a2 bc 58 c8 ac 3d
       0.00017328034 0.00018721595 -0.019809114 0.0843665
000030 e2 ee da bc 45 8d 83 39 fe cb 40 39 6e 51 a3 bc
       -0.026725236 0.0002509152 0.0001838654 -0.01993629
000040 de a1 ac 3d 5c 2b dc bc 2d a1 af 39 0c 33 3c 39
       0.08429311 -0.026876144 0.00033498686 0.00017948094
000050 7d 61 a4 bc 0e 6e ac 3d 52 5d dd bc f1 3c df 39
       -0.020066017 0.08419429 -0.027022038 0.0004257928
000060 13 5f 36 39
       0.0001739229
